models/autoencoder_barabasi_100k.pt (torch, 757831 bytes, 12 tensors)

weight f4 [256, 2]
0	0x3edda83f	0.43292424
1	0x3ec740be	0.38916582
2	0x3e86bb96	0.26314992
3	0xbdad7835	-0.08470193
4	0xbfb79b8d	-1.4344345
5	0xbe68039f	-0.22657631
6	0x3e712617	0.23549686
7	0xbcf14884	-0.029453523
8	0xbe5f008c	-0.21777552
9	0xbf15d2db	-0.58524865
10	0xbd04c0f7	-0.032410588
11	0xbefa5536	-0.48893136
12	0xbefa05d6	-0.48832577
13	0x3e95fdd4	0.29295218
14	0x3e9d3a90	0.30708742
15	0xbeb0a079	-0.3449743
16	0x3f35f879	0.71082264
17	0xbf1dd52f	-0.6165342
18	0xbee5e4c1	-0.44901088
19	0xbf7e1dab	-0.9926402
20	0x3f58a2d5	0.8462346
21	0xbf176ebd	-0.5915335
22	0xbf16ae34	-0.5885956
23	0xbedf92c5	-0.43666664
24	0x3f01c724	0.5069449
25	0x3f0b64cf	0.54450697
26	0xbcf16c7b	-0.029470673
27	0xbb64f34d	-0.0034935058
28	0xbdc473ce	-0.095924005
29	0xbf04591b	-0.51698464
30	0x3f460055	0.77344257
31	0xbe6878f3	-0.22702388
32	0xbe3e8550	-0.18605542
33	0xbb87f96d	-0.004149607
34	0x3f40f1ce	0.75368965
35	0xbef50f5c	-0.4786328
36	0x3ec6dacf	0.38838813
37	0x3e5faabc	0.21842474
38	0x3f13906e	0.5764226
39	0xbea776e7	-0.32707903
40	0x3f313ac7	0.6923031
41	0xbc825cc0	-0.015913367
42	0x3edb72b6	0.42860955
43	0x3ea738ce	0.32660526
44	0x3a409748	0.00073467614
45	0xbd4c7009	-0.049911533
46	0xbe565f19	-0.20934714
47	0x3ef38333	0.47561035
48	0x3f051961	0.5199185
49	0x3f4d525a	0.80203784
50	0xbca3808c	-0.019958757
51	0x3e0f5b1a	0.13999596
52	0xbf690e55	-0.91037494
53	0xbee7e0cb	-0.4528869
54	0x3f023b34	0.50871587
55	0xbe6b3127	-0.22967969
56	0xbe1c9b59	-0.15293635
57	0x3c5fe1d6	0.013664683
58	0x3d9c66a5	0.076367654
59	0x3eb061f9	0.34449747
60	0xbe92914b	-0.28626475
61	0xbf17fbb8	-0.5936847
62	0xbe69be2d	-0.22826453
63	0x3eaf842b	0.34280524
64	0xbda8a1cf	-0.082339875
65	0x3dfd4ad1	0.12367786
66	0xbea45a88	-0.3210032
67	0x3f410bbd	0.75408536
68	0x3e1403ff	0.1445465
69	0x3cb5c9ac	0.022190891
70	0x3e24174a	0.16024509
71	0x3ca479be	0.020077582
72	0x3f08e1ef	0.5346975
73	0x3f17f8a3	0.59363765
74	0x3f267e52	0.650365
75	0xbe487f36	-0.19579777
76	0xbec9b8e3	-0.3939887
77	0x3e6485fd	0.22316737
78	0xbb9f6b28	-0.004865069
79	0x3f398b85	0.72478515
80	0x3f27dccb	0.6557128
81	0x3d04fcd0	0.032467663
82	0x3e865c5a	0.26242334
83	0x3b37c579	0.0028041287
84	0x3e1b1868	0.15146029
85	0xbf13636a	-0.5757357
86	0xbe3cbc87	-0.18431292
87	0x3ea7303f	0.32653996
88	0x3ebb4be4	0.36581337
89	0x3eba5ac7	0.36397383
90	0xbe828069	-0.25488594
91	0x3f3936b2	0.72349083
92	0xbf11f93b	-0.5702092
93	0x3f131690	0.574563
94	0xbd7a283e	-0.061073534
95	0xbf27969d	-0.6546419
96	0x3f0693a7	0.5256905
97	0xbe83510d	-0.25647774
98	0xbdbf24ba	-0.09333177
99	0x3f0093f4	0.5022576
100	0x3ee715fd	0.45133963
101	0x3e8fa79f	0.28057572
102	0x3e2eef61	0.17083503
103	0x3ecda1d6	0.40162534
104	0x3eee5d2c	0.4655546
105	0x3f0d7f87	0.55272716
106	0x3db8a7ce	0.09016381
107	0x3f3ffd2e	0.74995697
108	0x3de851cb	0.11343726
109	0x3f059928	0.5218682
110	0x3d747ee4	0.059691325
111	0xbe848697	-0.25883934
112	0xbf2ce4c5	-0.67536575
113	0xbebb1c10	-0.36544847
114	0x3cd90fc8	0.026496783
115	0x3f4b17d4	0.79333234
116	0xbe2a8c43	-0.16655068
117	0xbf149764	-0.58043504
118	0xbf239167	-0.6389374
119	0x3e624095	0.22094949
120	0xbdc716a1	-0.09721113
121	0x3e80ef32	0.25182492
122	0xbf1a2d3d	-0.6022528
123	0x3f04d975	0.51894313
124	0x3e5c74f7	0.21528994
125	0xbdcb1ba8	-0.099173844
126	0x3ee7c10e	0.45264477
127	0x3f3ddbf9	0.74163777
128	0x3ddf64e1	0.10907913
129	0x3eb8409a	0.35986787
130	0xbeaa8365	-0.3330337
131	0xbf82806a	-1.0195439
132	0x3e89a40a	0.26882964
133	0xbc7bf671	-0.01537858
134	0x3c399a1f	0.011328249
135	0xbd003546	-0.031300806
136	0x3f061c94	0.52387357
137	0xbf1af142	-0.6052438
138	0xbf6d8500	-0.92781067
139	0x3ee44886	0.4458658
140	0xbed4c99a	-0.4156006
141	0x3e2a76cf	0.16646884
142	0x3ecce82d	0.40020886
143	0x3ec016fe	0.37517542
144	0x3ea1e377	0.31618854
145	0x3e5f5b26	0.21812114
146	0x3f1dbb70	0.6161413
147	0x3e25d0fc	0.16193002
148	0xbe8da1b2	-0.27662426
149	0x3e5c3145	0.2150317
150	0xbe26f45a	-0.1630415
151	0x3f23dd9c	0.64010024
152	0x3e624ba6	0.2209917
153	0xbe8a6e6e	-0.27037376
154	0x3e36a548	0.17836487
155	0xbe9cbee7	-0.30614397
156	0xbec227db	-0.37921032
157	0xbde7cd93	-0.11318507
158	0x3de658cb	0.11247405
159	0xbe600366	-0.21876296
160	0x3e47b07b	0.19500916
161	0x3f4bf5f4	0.7967217
162	0xbf52c1d0	-0.82326984
163	0x3f2d2bc4	0.67644906
164	0xbe2e2298	-0.17005384
165	0xbf0f690b	-0.5601966
166	0x3f1a89b4	0.6036637
167	0x3f591447	0.84796566
168	0xbe8db44c	-0.27676618
169	0x3dd2b254	0.1028792
170	0xbe03cb65	-0.12870558
171	0x3d926346	0.07147841
172	0x3ec9db5c	0.3942517
173	0x3edb4a22	0.42829996
174	0x3de7b637	0.113140516
175	0xbd275682	-0.040853985
176	0x3bddcbd6	0.006768684
177	0x3e062b16	0.13102373
178	0xbe844deb	-0.25840697
179	0xbbaf559f	-0.005350783
180	0x3ea65bac	0.32491815
181	0xbefc8078	-0.49316764
182	0x3dd7b9d1	0.105334885
183	0xbf646edb	-0.8923165
184	0xbe856879	-0.2605627
185	0xbe2b431d	-0.1672482
186	0x3ede20a9	0.43384293
187	0x3c4b048d	0.012391222
188	0xbed81a6e	-0.42207664
189	0x3beacaa5	0.0071652704
190	0x3f53c7b4	0.827266
191	0xbf1aedcc	-0.605191
192	0x3e06c21d	0.13159986
193	0x3f054728	0.520617
194	0xbe3ed506	-0.1863595
195	0xbf5fa959	-0.8736778
196	0x3f2fe186	0.68703496
197	0x3e91a603	0.2844697
198	0x3ea64bd1	0.32479718
199	0xbe9b5685	-0.30339447
200	0xbf075918	-0.5287032
201	0xbf802f3d	-1.0014416
202	0x3e806838	0.25079513
203	0x3eabe438	0.33572555
204	0x3ece177f	0.402523
205	0x3ed7fa9f	0.42183396
206	0xbf44e63b	-0.76913804
207	0xbe697998	-0.2280029
208	0xbc81ac6d	-0.01582929
209	0x3cce4206	0.025177967
210	0xbe4bb9de	-0.19895121
211	0xbf4efeac	-0.8085735
212	0x3e07540a	0.13215652
213	0xbeb39f37	-0.3508241
214	0xbb828778	-0.0039834343
215	0xbf76cf30	-0.96409893
216	0xbe02cdaf	-0.12773775
217	0x3f4a7a80	0.7909317
218	0x3e097392	0.13422993
219	0xbe2cac44	-0.16862589
220	0x3e60acb4	0.21940881
221	0xbf103e5a	-0.5634514
222	0x3daaaa48	0.0833326
223	0xbeb479a8	-0.35249066
224	0xbf653816	-0.89538705
225	0x3e9d82fb	0.30763993
226	0xbe920f81	-0.28527454
227	0x3f0e9ad2	0.5570499
228	0x3ee74e37	0.4517686
229	0x3e001b7f	0.12510489
230	0x3f15cdca	0.58517134
231	0xbea6ea59	-0.32600668
232	0x3d9a38b9	0.0753035
233	0x3f1470e5	0.57984763
234	0x3da315ca	0.0796314
235	0x3f069ec9	0.52586037
236	0x3e9b066d	0.3027834
237	0xbe06ae34	-0.1315239
238	0xbdf79c14	-0.120903164
239	0xbf37185b	-0.7152154
240	0xbf2b9910	-0.6703043
241	0x3e7ed9b9	0.24887742
242	0xbef9c69a	-0.48784333
243	0xbeb70309	-0.35744503
244	0x3f262ba9	0.6491037
245	0x3f3516d0	0.70737934
246	0x3d91cdcf	0.07119333
247	0xbeb53792	-0.3539396
248	0x3efc66fe	0.49297327
249	0xbcd9829f	-0.026551543
250	0x3d81dce0	0.06340957
251	0xbc2c733d	-0.010525522
252	0xbe4fbaf2	-0.20286158
253	0xbefcca22	-0.49372965
254	0x3e0096ed	0.12557574
255	0xbe75165f	-0.23934315

bias f4 [256]
0	0xbf33fb0d	-0.7030495
1	0xbedfddbf	-0.43723866
2	0x3da2ae05	0.07943348
3	0xbf21b2f7	-0.63163704
4	0xbf2db69f	-0.6785678
5	0x3f3f08a4	0.7462256
6	0x3f159547	0.58430904
7	0x3f197a62	0.59952366
8	0x3de014e3	0.10941484
9	0xbf25badc	-0.6473825
10	0x3ea8523f	0.3287525
11	0x3f0b5b32	0.5443603
12	0xbe5f9bfb	-0.21836846
13	0x3ce47fa5	0.027892897
14	0x3eb3a25b	0.35084805
15	0x3cb3e695	0.021960536
16	0xbf32c5a4	-0.69832826
17	0xbcb02e07	-0.021506323
18	0x3e634e9b	0.22197954
19	0xbda01668	-0.07816774
20	0xbf061776	-0.5237955
21	0x3e92c495	0.28665605
22	0x3d3cbd3d	0.04607891
23	0xbddd1b83	-0.10796263
24	0xbeb1810f	-0.34668776
25	0xbeb6ade0	-0.3567953
26	0x3f40a889	0.75257164
27	0xbec841e5	-0.39112774
28	0x3f07d52c	0.5305965
29	0xbe364455	-0.17799504
30	0xbeb7eb11	-0.3592153
31	0xbe8c515d	-0.27405825
32	0xbf1f251e	-0.6216601
33	0xbd0085c5	-0.031377573
34	0xbf18d5e4	-0.5970137
35	0xbdf2704c	-0.11837825
36	0xbf165d12	-0.58735764
37	0x3e06271f	0.13100861
38	0x3f084b46	0.5323986
39	0x3db12966	0.08650474
40	0xbe02407f	-0.12719916
41	0x3e6e41f1	0.23267342
42	0xbf24b4b7	-0.6433825
43	0x3ea209eb	0.31648192
44	0x3d6a3362	0.05717791
45	0xbf140b44	-0.5782969
46	0x3e8d2a24	0.27571213
47	0x3f1b2f05	0.6061862
48	0xbf26b0b7	-0.65113395
49	0x3dd0cd21	0.10195375
50	0x3cd0120c	0.02539923
51	0xbe8ae99d	-0.27131358
52	0x3e75c7b9	0.2400197
53	0xbf3ea284	-0.7446673
54	0xbd82f553	-0.06394448
55	0x3f30aaad	0.6901043
56	0x3f13e683	0.5777361
57	0xbeba340d	-0.36367837
58	0xbf6a5b04	-0.9154513
59	0x3efd5939	0.49482134
60	0xbea6d6cb	-0.3258575
61	0xbcfd2337	-0.03090058
62	0xbe998026	-0.29980582
63	0x3d894428	0.06702453
64	0x3c9d0613	0.019167935
65	0xbf2661b7	-0.6499285
66	0x3e5e4756	0.217069
67	0xbf3ab858	-0.72937536
68	0xbf1dc807	-0.6163334
69	0x3e72fc6c	0.23729104
70	0x3d9c2030	0.07623327
71	0x3cd7d6b9	0.026347505
72	0xbe11f2fc	-0.14252847
73	0xbf22c722	-0.635851
74	0xbf2cbb69	-0.67473465
75	0xbf1c1d9d	-0.60982686
76	0x3dc7b2dc	0.097509116
77	0x3e1c3151	0.15253188
78	0xbf12246a	-0.57086813
79	0x3e00447b	0.12526123
80	0xbde68cde	-0.11257337
81	0xbea63dbf	-0.32468984
82	0x3ea52ee3	0.32262334
83	0xbeef02a9	-0.46681717
84	0x3da711d7	0.081576996
85	0x3eca38cf	0.39496467
86	0xbe986060	-0.29761028
87	0x3ed929d7	0.42414734
88	0x3f01a261	0.50638396
89	0xbf5a6cb0	-0.85322094
90	0x3e458001	0.19287111
91	0xbf5c8489	-0.8613973
92	0xbf2a688c	-0.66565776
93	0x3e0def02	0.13860705
94	0x3ecb1f34	0.39672244
95	0xbd1979cc	-0.03746967
96	0xbe975d0c	-0.29563177
97	0xbf49f203	-0.78884906
98	0xbeb46d2e	-0.35239547
99	0x3eabe043	0.33569536
100	0xbf2a11ca	-0.66433394
101	0xbf1bc1cb	-0.6084258
102	0xbe070a5b	-0.13187544
103	0x3f4d888d	0.80286485
104	0x3ea6c471	0.32571748
105	0xbecfa090	-0.40552187
106	0x3e13c337	0.14429937
107	0xbf3e3238	-0.7429538
108	0xbec8096c	-0.39069688
109	0x3e80079b	0.25005803
110	0x3e9ab6ca	0.30217582
111	0xbe885c68	-0.26633
112	0x3e92ad30	0.28647757
113	0xbf065920	-0.52479744
114	0x3ec23a77	0.3793523
115	0x3e2ec953	0.17068987
116	0xbe8d153f	-0.27555272
117	0x3ee80561	0.45316604
118	0x3e86faf0	0.26363325
119	0xbf3e90c6	-0.74439657
120	0x3e853192	0.26014382
121	0x3f05d88e	0.5228356
122	0x3e4b9f74	0.19885045
123	0xbe7f745f	-0.24946736
124	0xbef8154d	-0.4845375
125	0xbf205f44	-0.62645364
126	0x3e8c2d20	0.27378178
127	0x3dfedbd8	0.124442756
128	0xbe86e1be	-0.26344103
129	0xbf033e50	-0.51266956
130	0x3f2fadd3	0.6862461
131	0x3e9dd952	0.30829865
132	0x3ec594c0	0.3859005
133	0x3ec49a6f	0.38399073
134	0x3ee89b0f	0.454308
135	0x3d9830d8	0.07431191
136	0xbe83bb70	-0.2572894
137	0x3e8996ce	0.26872867
138	0x3e5c2b5a	0.21500912
139	0x3ef5780e	0.47943157
140	0x3f2b1a99	0.6683746
141	0xbe99846b	-0.2998384
142	0xbda845db	-0.08216449
143	0x3e15dff2	0.1463621
144	0x3f245252	0.6418811
145	0xbf1cfa75	-0.6131967
146	0xbecfa62c	-0.40556467
147	0x3f2e158d	0.68001634
148	0x3f215a54	0.63028455
149	0xbecda41e	-0.40164274
150	0xbf1613ea	-0.58624136
151	0xbdfe9a20	-0.12431741
152	0x3e5a9018	0.2134403
153	0x3e898a3f	0.26863286
154	0x3f1a815d	0.6035364
155	0xbefa21fc	-0.48854053
156	0x3f0546e3	0.5206129
157	0xbdff9e15	-0.12481324
158	0xbf3b5862	-0.73181736
159	0x3eec1a75	0.46113935
160	0xbf1d82e3	-0.6152784
161	0x3f224255	0.63382465
162	0x3d37f406	0.044910453
163	0x3e987159	0.29773977
164	0xbd7e25f8	-0.06204793
165	0xbf18099a	-0.5938965
166	0xbe60ce01	-0.21953584
167	0x3e5b6072	0.2142351
168	0x3eda6db6	0.42661828
169	0xbe6cd9e0	-0.23129988
170	0x3ea11384	0.31460202
171	0x3f3f5603	0.7474062
172	0xbf03f60e	-0.51547325
173	0xbe9cb2c3	-0.30605134
174	0x3ed4f238	0.41591048
175	0xbf0e805b	-0.55664605
176	0xbe85ed74	-0.26157725
177	0x3f272374	0.6528847
178	0xbea5933b	-0.3233889
179	0xbe89fda6	-0.2695133
180	0x3d90e828	0.0707553
181	0xbe528a25	-0.2056051
182	0xbce020cd	-0.02735939
183	0x3c9f449a	0.019441891
184	0x3ecb15e4	0.3966514
185	0xbd9f5de8	-0.07781583
186	0xbe0a75bc	-0.13521475
187	0x3dfb8878	0.12281889
188	0x3d2958f0	0.041344583
189	0x3de635f7	0.11240762
190	0xbe734f87	-0.23760806
191	0xbf4d3d38	-0.8017154
192	0x3ee9dce5	0.45676342
193	0xbf2f0c3c	-0.68378043
194	0xbf5b844c	-0.85748744
195	0xbef40e2f	-0.4766707
196	0x3ee5dba9	0.4489415
197	0x3eecaf99	0.4622772
198	0x3e8302d0	0.25588083
199	0x3ecc37bc	0.39886272
200	0xbf0a5ac2	-0.54044735
201	0xbe872b55	-0.26400247
202	0x3e960fbe	0.29308885
203	0xbf4b2c20	-0.79364204
204	0x3e22cda9	0.15898766
205	0x3df48e54	0.119412094
206	0x3e9c2422	0.30496317
207	0xbeefba75	-0.46821943
208	0xbed5c82a	-0.41754276
209	0x3e9ce07d	0.3064002
210	0x3e1d4085	0.15356643
211	0x3eb634cd	0.3558716
212	0xbf0c537f	-0.54814905
213	0xbe934577	-0.28763935
214	0x3e00d8fc	0.12582773
215	0xbeeac894	-0.45856154
216	0x3e19184f	0.14950679
217	0xbf2bbb43	-0.67082614
218	0xbea56fb5	-0.32311788
219	0xbeda37e6	-0.42620772
220	0xbf31916c	-0.6936252
221	0xbec41374	-0.38296092
222	0x3f0a6327	0.54057544
223	0x3f0edd7f	0.55806726
224	0x3e63b803	0.22238164
225	0x3eddd64d	0.4332756
226	0x3f0cccb7	0.5499987
227	0x3e8c942a	0.2745679
228	0x3e78945a	0.24275342
229	0xbea7c2ea	-0.32765895
230	0x3e3e53be	0.18586633
231	0xbf3424cd	-0.70368654
232	0x3e9fb63c	0.3119372
233	0xbeba2c5a	-0.36361963
234	0x3d41a28f	0.04727417
235	0xbf2e228e	-0.68021476
236	0xbf303bb8	-0.68841124
237	0xbdc813a3	-0.097693704
238	0xbe902533	-0.2815338
239	0xbd08d83b	-0.03340934
240	0xbeaf2e0e	-0.34214824
241	0xbe17d96d	-0.14829035
242	0x3e810597	0.25199577
243	0xbf165dd3	-0.58736914
244	0x3e740069	0.23828281
245	0x3ec26576	0.37968034
246	0xbd823f6f	-0.06359755
247	0xbecbbfa6	-0.39794654
248	0xbe513089	-0.20428671
249	0x3efdae10	0.49546862
250	0x3f25f8f8	0.6483302
251	0xbf295b1a	-0.66154635
252	0x3eda4247	0.4262869
253	0x3dbb20df	0.09137129
254	0xbee6a5f1	-0.45048478
255	0x3e80afa1	0.25133994

weight f4 [256, 256]
0	0x3db93301	0.09042931
1	0x3cf9241a	0.030412722
2	0xbc6d0619	-0.014466786
3	0x3d972a86	0.073811576
4	0x3db18948	0.086687624
5	0xbe466e66	-0.19378051
6	0xbd240e7c	-0.040052876
7	0xbe1c02af	-0.15235399
8	0xbed2d82a	-0.41180545
9	0x3d98a90b	0.074541174
10	0xbe5378da	-0.2065157
11	0xbe3abe0e	-0.18236563
12	0x3c0ecf38	0.008716397
13	0xbca0126f	-0.01954004
14	0xbe1a7484	-0.1508351
15	0xbe5e0eb0	-0.2168529
16	0xbaf5584f	-0.0018718335
17	0xbec7a8b9	-0.38995913
18	0xbd40e539	-0.047093604
19	0xbd576369	-0.05258504
20	0xbdaca6d6	-0.08430259
21	0xbd5f206d	-0.054474283
22	0x3c1700d0	0.009216502
23	0x3e0faf5b	0.14031737
24	0x3d952c93	0.072838925
25	0x3d0ba21f	0.034090158
26	0xbe844bf5	-0.258392
27	0x3cc5b470	0.02413389
28	0xbd08eb5e	-0.03342759
29	0x3dc886f3	0.097913645
30	0xbd0204fe	-0.031743042
31	0x3e3e80cc	0.1860382
32	0x3bc14e01	0.0058991914
33	0x3dad62d8	0.084661186
34	0x3cf4f235	0.02990065
35	0xbd8e4206	-0.06946187
36	0x3e1b7898	0.15182722
37	0xbe0f2054	-0.13977176
38	0xbd12a40a	-0.03580097
39	0x3e09f5ca	0.13472667
40	0xbdb7829e	-0.0896046
41	0x3d3ec31f	0.0465728
42	0x3c264acb	0.010149668
43	0xbb8ee229	-0.0043604565
44	0x3d9f7073	0.0778512
45	0x3ecbcac0	0.39803123
46	0x3df26335	0.118353285
47	0xbef79153	-0.4835306
48	0x3d376753	0.044776272
49	0x3cbb7218	0.022881553
50	0x3c0c6b71	0.008570538
51	0x3e51d62d	0.20491858
52	0xbcd05d30	-0.02543506
53	0x3f3ef2aa	0.74589026
54	0x3dab13ab	0.08353361
55	0xbe083db4	-0.13304788
56	0xbe69b762	-0.22823861
57	0x3e467b6a	0.19383016
58	0x3d046680	0.032324314
59	0xbbb93db9	-0.00565311
60	0x3daa5668	0.08317262
61	0x3e5875e2	0.21138719
62	0xbb98a184	-0.004657926
63	0x3c427d17	0.011870644
64	0x3a9cf8af	0.0011975969
65	0x3c40136e	0.011723382
66	0xbc9d05d3	-0.019167816
67	0xbc051567	-0.0081227785
68	0xbc836600	-0.016039848
69	0x3dd2b62a	0.10288651
70	0x3d300512	0.042973585
71	0x3ccd247c	0.025041811
72	0x3d9f1518	0.07767695
73	0x3d2604bc	0.04053186
74	0x3d5c66ff	0.053809162
75	0x3e725748	0.23666108
76	0xbdb0c582	-0.086314216
77	0xbd28e516	-0.0412341
78	0x3d40e1d7	0.047090378
79	0xbdcfba7b	-0.1014299
80	0x3d258550	0.04041034
81	0x3e804ea7	0.25060007
82	0xbc80e9b0	-0.01573643
83	0x3e190418	0.14942968
84	0xbc2143f6	-0.009842863
85	0x3d613d6c	0.054990217
86	0x3db506b7	0.088391714
87	0xbcd1cdeb	-0.025610885
88	0xbc519a37	-0.012793115
89	0x3cdc979b	0.02692776
90	0xbdca2f4b	-0.09872302
91	0x3df095c2	0.11747314
92	0x3d343ec1	0.04400516
93	0xbd808d2d	-0.06276927
94	0xbd8e8181	-0.06958295
95	0xbe4c5152	-0.19952896
96	0x3e652a2e	0.22379372
97	0x3dbe7f18	0.09301585
98	0x3d4d0c99	0.050060842
99	0xbdc3e9c7	-0.09566074
100	0x3d8c5bac	0.068534225
101	0x3e02434d	0.12720986
102	0x3cce7d93	0.025206363
103	0xbe61c08f	-0.22046112
104	0x3d30ce63	0.043165576
105	0x3cb98169	0.022644715
106	0xbd56d3ef	-0.05244821
107	0x3c3e1a26	0.011602914
108	0x3e99f76e	0.30071586
109	0xbd1c7b64	-0.038203612
110	0xbe3c330d	-0.1837885
111	0x3c0f1531	0.00873308
112	0x3cde7deb	0.027159652
113	0x3de005dd	0.10938618
114	0xbc3e6a98	-0.011622094
115	0xbe6a6269	-0.22889103
116	0x3e2ab1ea	0.16669431
117	0xbb44a428	-0.0030005071
118	0x3b715e21	0.0036829787
119	0x3d5ff446	0.054676317
120	0x3d1389e7	0.036020186
121	0xbe9a7b34	-0.30172122
122	0xbc1de039	-0.009635978
123	0x3d8fa1ba	0.07013269
124	0xbc8a8f19	-0.016913937
125	0x3d6df053	0.05809052
126	0xbdc6840f	-0.09693157
127	0xbd79e4ac	-0.061009094
128	0xbcc33769	-0.023830133
129	0x3d96eb23	0.073690675
130	0xbe2acab1	-0.16678883
131	0xbe363b62	-0.1779609
132	0xbd40cbfa	-0.047069527
133	0xbde4ece9	-0.111779995
134	0x3d8186a3	0.06324508
135	0x3d966fac	0.073455185
136	0xbba013e7	-0.004885185
137	0xbd5aa737	-0.053382125
138	0x3d245c2d	0.04012697
139	0x3d03ef29	0.032210503
140	0xbe0f91c1	-0.14020444
141	0x3d94ad37	0.072596006
142	0x3d9967a4	0.07490471
143	0xbe0f36e7	-0.13985787
144	0xbbc6e8de	-0.0060702404
145	0x3dd52f34	0.10409394
146	0x3da9d329	0.08292229
147	0xbd1fc0a1	-0.039002065
148	0xbe86635e	-0.26247686
149	0x3c323380	0.010876536
150	0x3dc37dfa	0.095455125
151	0x3e63e3ff	0.22254942
152	0xbe023099	-0.12713851
153	0xbdf2df99	-0.11859054
154	0xbe17e1fa	-0.14832297
155	0x3d155c3c	0.036464915
156	0xbe1b9d69	-0.15196766
157	0x3dc1602b	0.09442171
158	0x3de7de0a	0.113216475
159	0x3d7962d0	0.06088525
160	0x3e8bfd9c	0.27341926
161	0xbd9b08f6	-0.075700685
162	0x3d4e3e46	0.050352357
163	0xbdfb75e0	-0.12278342
164	0x3e21fab6	0.15818295
165	0x3d9fa63c	0.077953786
166	0x3e7578f5	0.23971923
167	0x3da34608	0.07972342
168	0xbebda6c8	-0.37041306
169	0xbe36c28c	-0.17847651
170	0xbdb63ae7	-0.088979535
171	0xbe93b355	-0.28847757
172	0x3cdf6f15	0.027274648
173	0x3d0f3394	0.034961298
174	0x3daaafbe	0.083343014
175	0xbabdd9fe	-0.0014484522
176	0x3e1098b3	0.1412075
177	0xbda3b765	-0.07993964
178	0x3df80522	0.12110354
179	0x3d82dca2	0.063897386
180	0xbed01b14	-0.4064566
181	0x3dbb8cb9	0.091577
182	0x3c743bb5	0.014906813
183	0x3e35e809	0.17764296
184	0xbd4b02f9	-0.04956338
185	0x3d626462	0.055271514
186	0x3e59e8df	0.2128024
187	0x3d37452f	0.044743713
188	0x3dfa38b3	0.12217846
189	0xbe55f787	-0.20895205
190	0x3c988a6f	0.018620698
191	0x3cda659b	0.026659777
192	0xbe7f7820	-0.24948168
193	0xbbdc3c22	-0.0067210356
194	0x3d7490ee	0.05970853
195	0x3e34e68b	0.1766607
196	0xbdbb73ce	-0.09152947
197	0x3d2184e1	0.039433364
198	0xbd58c9d6	-0.05292686
199	0xbdf3c43b	-0.11902662
200	0x3d46496f	0.048409875
201	0x3d7253bd	0.05916189
202	0xbdb4e5ba	-0.08832879
203	0x3d6a66e1	0.05722702
204	0xbedd13a1	-0.43179038
205	0x3cacc9d9	0.021092342
206	0x3c555f9e	0.013023285
207	0x3e6a9d8b	0.2291166
208	0x3d380d89	0.044934783
209	0xbdfb9218	-0.122837245
210	0x3b676b5c	0.0035311794
211	0xbd1d1d21	-0.038357858
212	0x3d6b3d3f	0.057431456
213	0x3cce89f5	0.025212267
214	0xbd720916	-0.059090696
215	0xbc84a36e	-0.01619121
216	0xbe064a62	-0.13114312
217	0x3cb120f4	0.021622159
218	0x3e2f4950	0.1711781
219	0x3e4fc546	0.20290098
220	0x3d4b19ab	0.049585026
221	0x3cbf5c80	0.023359537
222	0xbe792289	-0.2432958
223	0xbda9d1ee	-0.08291994
224	0xbc76f169	-0.015072205
225	0xbd9d94db	-0.076944076
226	0xbd50d09e	-0.050980203
227	0xbce1faa1	-0.02758533
228	0xbdbc940a	-0.09207924
229	0xbcbd40ae	-0.02310213
230	0xbd623a29	-0.055231247
231	0x3d8a3ce8	0.06749898
232	0xbda040c7	-0.07824855
233	0x3e089bf8	0.13340747
234	0xbe15ebb2	-0.14640692
235	0x3d808dce	0.06277047
236	0x3e004f85	0.12530334
237	0x3d825f64	0.063658506
238	0x3e3d2274	0.18470174
239	0xbdbd4257	-0.09241169
240	0x3eabcd52	0.33555084
241	0x3bc14de8	0.0058991797
242	0x3c97b392	0.018518243
243	0x3d59fdae	0.053220443
244	0x3d9ad807	0.07560735
245	0xbcd61c48	-0.026136532
246	0xbe0ffada	-0.14060536
247	0x3dbfc3a2	0.09363486
248	0x3d97a5df	0.07404684
249	0x3c0a2108	0.008430727
250	0xbbb40afc	-0.0054944735
251	0xbb9e9706	-0.0048397807
252	0xbe0fcaf5	-0.14042266
253	0x3d38b426	0.045093678
254	0x3ca8efa8	0.02062209
255	0xbd484773	-0.048896264

bias f4 [256]
0	0xbd73e3ef	-0.059543546
1	0x3dfa8ae0	0.122335196
2	0xbce0d31d	-0.027444417
3	0x3ce1dcea	0.02757116
4	0x3d5ea4d2	0.054356404
5	0xbc22305a	-0.009899223
6	0xbca319e3	-0.019909805
7	0x3ccc5195	0.024941245
8	0xbd176c43	-0.03696848
9	0x3cbeba15	0.02328209
10	0xbcefc3fb	-0.029268255
11	0x3ce90feb	0.028449973
12	0x3d76cca9	0.060253773
13	0xbbe2159d	-0.006899549
14	0xbd03b074	-0.0321507
15	0x3e053008	0.13006604
16	0x3d0ea605	0.034826297
17	0x3d784c84	0.060619846
18	0x3cb39625	0.02192218
19	0xbc925bca	-0.017866034
20	0xbdb3b094	-0.08773914
21	0x3e18de7d	0.14928623
22	0xbd909d8f	-0.07061302
23	0xbcb416c6	-0.021983515
24	0xbc51f262	-0.012814136
25	0x3d891d23	0.066950105
26	0xbcdad876	-0.026714545
27	0xbd9b5f16	-0.075864956
28	0x3bd086fc	0.0063637476
29	0xbbc80111	-0.0061036428
30	0x3cc7a763	0.024371808
31	0x3d923975	0.07139865
32	0xba44e6aa	-0.0007511178
33	0x3d7f2a19	0.062296007
34	0xbbab95f0	-0.00523638
35	0x3d8d461c	0.06898138
36	0x3d0222ab	0.031771343
37	0xbcfb775f	-0.030696569
38	0x3daecf1a	0.08535595
39	0x3e13519a	0.14386597
40	0x3d3460fa	0.044037797
41	0xbd995a40	-0.07487917
42	0x3cf5693e	0.02995741
43	0x3d1a0527	0.03760257
44	0x3d4465fd	0.047948826
45	0x3d65aac5	0.05607106
46	0x3e18e2d7	0.14930283
47	0x3c77246a	0.015084365
48	0x3d801124	0.06253269
49	0x3e005e1b	0.12535898
50	0x3c085c57	0.008322797
51	0x3d9fae8f	0.07796966
52	0x3d8f08f5	0.0698413
53	0x3daacdf6	0.08340065
54	0x3ce66a56	0.028126877
55	0xbc0c41ac	-0.008560579
56	0x3e02e1c7	0.1278144
57	0x3d4263fd	0.047458638
58	0x3d862942	0.06550838
59	0x3e1bb3af	0.15205263
60	0xbc8bf125	-0.01708276
61	0x3d799eaf	0.060942348
62	0x3dd2e455	0.10297457
63	0xbd8eb371	-0.069678195
64	0x3cee2697	0.029071135
65	0x3dde958c	0.108683676
66	0x3d604098	0.0547491
67	0x3e12a288	0.14319813
68	0x3dc2bac3	0.09508278
69	0xbdccc417	-0.09998339
70	0x3d811126	0.06302099
71	0x3d4f147d	0.05055665
72	0x3d0ba545	0.03409316
73	0x3e11d24b	0.14240377
74	0x3cdfe816	0.027332347
75	0xbd84ee89	-0.064908095
76	0xbdea4580	-0.11439037
77	0x3e000d38	0.12505043
78	0x3ddd5123	0.10806491
79	0x3bc9b882	0.0061560282
80	0xbd5e48c8	-0.05426863
81	0xbd809de5	-0.06280116
82	0x3cb360a6	0.021896672
83	0xbce6c134	-0.028168298
84	0x3db43632	0.087993994
85	0xb88c346c	-6.6854845e-05
86	0x3c08db5a	0.008353079
87	0x3cba3172	0.022728655
88	0xbd88911f	-0.06668305
89	0x3d0ee96c	0.034890577
90	0xbd835bba	-0.0641398
91	0x3ce68f64	0.028144546
92	0x3dac0667	0.08399659
93	0xbd8d29ae	-0.068927154
94	0x3db732c6	0.08945231
95	0xbd27f09e	-0.041000955
96	0xbda83a5e	-0.08214258
97	0xbb901e0c	-0.004398113
98	0x3c72ce87	0.014819748
99	0x3dc75fa9	0.097350426
100	0x3db90017	0.0903322
101	0x3ca2f54d	0.01989236
102	0x3d1d2559	0.038365696
103	0x3d57ab0f	0.05265337
104	0x3ad1162c	0.0015952042
105	0xbcb3bca9	-0.021940546
106	0x3d4b129a	0.049578287
107	0xbda92d30	-0.08260572
108	0x3dd24a4e	0.10268079
109	0x3d149c24	0.03628172
110	0xbc45707d	-0.012050745
111	0x3d4ca381	0.049960617
112	0xbdb07141	-0.086153515
113	0xbdf899bf	-0.121387
114	0x3dc0958f	0.09403526
115	0x3da74a83	0.08168509
116	0x3e0bc72c	0.13650197
117	0xbccb80ae	-0.024841633
118	0x3db2715d	0.087130286
119	0xbca5a17f	-0.020218609
120	0x3d96fddb	0.07372638
121	0xbc8176b7	-0.015803678
122	0x3c67d803	0.014150622
123	0xbdb19af8	-0.08672136
124	0x3d8b2828	0.067947686
125	0xbde5c82e	-0.11219822
126	0x3c900ac7	0.017583264
127	0x3d3c7840	0.046013117
128	0xba005063	-0.0004894791
129	0x3e0a3736	0.13497624
130	0x3e0d4001	0.13793947
131	0x3c8c8866	0.017154884
132	0xbd2d347c	-0.04228638
133	0x3d24302b	0.040085
134	0x3d935ce1	0.071954496
135	0x3d7010bb	0.058609705
136	0x3c886018	0.016647384
137	0xbd3ca7d2	-0.046058483
138	0x3d299178	0.041398495
139	0xbddaa25a	-0.10675497
140	0xbdba1f0b	-0.09087952
141	0x3ddcbd34	0.10778275
142	0x3d37f731	0.044913474
143	0xbc8dddad	-0.017317617
144	0x3cad512f	0.021156875
145	0x3e1431ba	0.14472094
146	0x3dbe424e	0.0928999
147	0x3e1a5f7d	0.15075488
148	0x3e02ad48	0.12761414
149	0x3cd0c5dc	0.025484972
150	0x3d77cba6	0.06049695
151	0x3d6cae6c	0.05778353
152	0x3cedcf22	0.029029433
153	0x3e049140	0.12946033
154	0x3e0171e8	0.12641108
155	0xbc5098d3	-0.012731749
156	0x3e0cd61d	0.13753553
157	0x3e0a35a7	0.13497029
158	0x3dc21df7	0.094783716
159	0x3c956d4e	0.018240597
160	0x3d3ea231	0.046541397
161	0x3e17a17e	0.14807698
162	0x3df46dcc	0.119350046
163	0x3e048802	0.12942508
164	0x3bb5cfa4	0.0055484343
165	0x3e08cdc6	0.13359746
166	0x3dab24be	0.083566174
167	0x3d825f9d	0.06365893
168	0x3dd5f4fc	0.10447118
169	0x3e00862f	0.12551187
170	0x3e222daa	0.15837732
171	0x3dc398bf	0.095506184
172	0xbcc478cf	-0.023983387
173	0x3e0b37de	0.1359553
174	0x3de9c4b3	0.114144705
175	0xbd8c701d	-0.068573214
176	0x3d398d70	0.0453009
177	0x3c118c40	0.008883536
178	0x3e078b1c	0.1323666
179	0xbcea3d37	-0.028593643
180	0x3d671fae	0.056426696
181	0xbd8c6297	-0.06854742
182	0x3daa5e85	0.083188094
183	0x3d95b918	0.073106945
184	0x3d8db0b7	0.06918471
185	0x3daa79e6	0.083240315
186	0xbc44152c	-0.011967938
187	0x3d8ecdf3	0.069728754
188	0x3dd08d1c	0.101831645
189	0x3d7e58b2	0.062096305
190	0xbd863c66	-0.06554489
191	0xbc80033e	-0.015626546
192	0x3d93b0c8	0.07211453
193	0x3cccc238	0.024994954
194	0xbd8538cb	-0.06504973
195	0x3dd287ee	0.10279833
196	0x3e0d2864	0.13784939
197	0x3c998b71	0.018743249
198	0x3bc6d1d1	0.0060674925
199	0xbd05e597	-0.032689657
200	0x3d334cfd	0.043774594
201	0x3baa65d9	0.0052001295
202	0xbd9ba83c	-0.076004475
203	0x3d74c03c	0.05975364
204	0x39d70a28	0.00041015563
205	0x3e0569ee	0.1302869
206	0x3d961572	0.07328309
207	0x3d435c59	0.04769549
208	0x3d686eba	0.056746222
209	0xbd2a82e0	-0.04162872
210	0xbcbf4d19	-0.023352193
211	0xbc8230fd	-0.0158925
212	0x3e06af67	0.13152848
213	0x3d17213a	0.03689692
214	0x3a645818	0.0008710637
215	0x3daf2499	0.08551902
216	0xbc7cb37f	-0.015423655
217	0xbd3c4c2f	-0.04597109
218	0x3d3fca7d	0.046823967
219	0x3d37cea1	0.04487479
220	0x3d82dc48	0.063896716
221	0x3aee4664	0.0018178937
222	0x3d602a96	0.054728113
223	0x3dd5683e	0.10420273
224	0xbca3ee1e	-0.020011004
225	0xbbccb078	-0.0062466227
226	0x3d50dac3	0.050989877
227	0xbd0b1619	-0.03395662
228	0x3de21056	0.11038272
229	0xbceb8329	-0.028749065
230	0x3d809228	0.06277877
231	0x3c2dce9b	0.010608341
232	0x3dea0be4	0.11428049
233	0xbda10bd7	-0.078635864
234	0xbcb47cdb	-0.022032192
235	0xbd7f2fd6	-0.06230148
236	0xbd181bb5	-0.0371358
237	0x3d49a066	0.049225233
238	0x3d6173f1	0.05504221
239	0x3d3d7e5d	0.046263088
240	0x3d62b887	0.05535176
241	0x3d223a42	0.03960634
242	0x3d1b60ac	0.03793399
243	0x3d719c99	0.058987234
244	0x3d122317	0.035677996
245	0xbd3f0fc0	-0.04664588
246	0x3d81aee7	0.06332188
247	0x3daf638d	0.0856391
248	0x3d8bf53f	0.06833886
249	0x3d49ecd2	0.049298115
250	0xba5880bb	-0.00082589284
251	0x3a80fa03	0.0009840134
252	0x3dd30bbe	0.10304974
253	0x3dd0afae	0.10189758
254	0x3ddcc51b	0.107797824
255	0x3d9a4770	0.07533157

weight f4 [32, 256]
0	0xbc5004e8	-0.012696482
1	0x3c795c78	0.0152198
2	0xbda611c0	-0.08108854
3	0x3de8b9ca	0.113635615
4	0x3d3a2424	0.045444623
5	0xbd9b8293	-0.075932644
6	0x3c312956	0.010813078
7	0xbe0a244a	-0.13490406
8	0xbd9d1d8e	-0.07671653
9	0x3db0be98	0.08630103
10	0xbd17be6a	-0.037046827
11	0xbd251ec0	-0.04031253
12	0x3ccd7b60	0.025083244
13	0xb9b70b02	-0.0003491268
14	0xbd9a07f6	-0.0752105
15	0x3dc9c67e	0.098523125
16	0x3cd6b82a	0.026210863
17	0xbdfb52b3	-0.12271633
18	0xbdf5c9c7	-0.120013766
19	0x3f767e05	0.9628604
20	0xbdf9c2af	-0.12195336
21	0x3d9cff5f	0.07665896
22	0xbcb1f4ed	-0.021723235
23	0xbe008441	-0.12550451
24	0xbd85414d	-0.06506596
25	0x3d9ee0ae	0.07757698
26	0xbc3388ef	-0.0109579405
27	0xbd11e4aa	-0.03561846
28	0xbd226f42	-0.039656885
29	0x3b027061	0.0019903409
30	0xbd13903a	-0.036026217
31	0x3dd5e355	0.10443751
32	0xbdc4489e	-0.09584163
33	0x3d99da80	0.07512379
34	0xbd230d6c	-0.039807722
35	0xbe12b897	-0.14328228
36	0xbd2090c0	-0.039200544
37	0xbd763961	-0.060113315
38	0x3d7697fd	0.06020354
39	0x3dee71d6	0.11642806
40	0xbd1efcb2	-0.038815208
41	0xbd897e6a	-0.06713565
42	0x3cfff006	0.031242382
43	0xbd1be20b	-0.03805737
44	0xbd941829	-0.07231171
45	0x3f9086cd	1.1291138
46	0x3d147349	0.036242757
47	0xbc7a56fe	-0.01527953
48	0x3df084a9	0.11744053
49	0x3caac0e4	0.02084393
50	0xbd87c3b7	-0.066291265
51	0x3e00e3f6	0.1258696
52	0x3d45630e	0.04819017
53	0x3d59215d	0.053010333
54	0xbd830253	-0.06396928
55	0xbdc98433	-0.09839668
56	0x3df998f1	0.121873744
57	0x3e007ed1	0.12548377
58	0x3e0b92ae	0.13630173
59	0x3dc2f413	0.0951921
60	0xbc640ef7	-0.0139195835
61	0xbdfa3cd1	-0.12218631
62	0x3d98f9e1	0.074695356
63	0xbcf794d3	-0.030222332
64	0xbc522c01	-0.012827874
65	0x3cd9fbf0	0.026609391
66	0xbaf2fbd5	-0.0018538187
67	0x3dc321bf	0.09527921
68	0x3da68391	0.08130563
69	0x3bf8b950	0.0075904503
70	0x3db0fb04	0.086416274
71	0x3dc41363	0.0957401
72	0x3d881853	0.066452645
73	0x3d7192c4	0.058977857
74	0xbde1cc19	-0.11025257
75	0xbdb25b77	-0.08708852
76	0x3ce2ab0e	0.027669456
77	0x3dcef4a2	0.10105254
78	0x3cdf5395	0.027261535
79	0xbd8d28e2	-0.068925634
80	0xbdaf5d78	-0.085627496
81	0xbdf495d7	-0.11942642
82	0xbcd0cc6b	-0.0254881
83	0xbdb5eac1	-0.088826664
84	0x3c94c33b	0.0181595
85	0xbcd4aa9e	-0.025960263
86	0xbdc1e6f0	-0.09467876
87	0xbdef5ea6	-0.11687975
88	0xbd96b3c2	-0.07358505
89	0xbe130eb2	-0.14361075
90	0xbdcc551d	-0.099771716
91	0x3d93065d	0.07178948
92	0x3de23cb3	0.11046734
93	0xbddfd5b5	-0.10929433
94	0x3ce33d78	0.027739272
95	0xbda9e13d	-0.08294914
96	0x3c19dd73	0.0093911765
97	0xbdca2bed	-0.098716594
98	0xbc092eed	-0.008373004
99	0x3d914069	0.070923634
100	0x3da337ab	0.07969602
101	0x3ef2214b	0.47291026
102	0x3d3f0561	0.04663599
103	0x3d3c9e55	0.046049435
104	0xbdfce787	-0.12348848
105	0xbcefdfa7	-0.02928145
106	0xbe04761f	-0.12935685
107	0xbdb1f31a	-0.08688946
108	0x3d720769	0.059089098
109	0x3d41432d	0.047183204
110	0xbd5a089b	-0.053230863
111	0x3f3fe625	0.7496055
112	0xbdaae03e	-0.08343552
113	0xbdba67c0	-0.0910182
114	0x3f0a569b	0.540384
115	0x3db5e97b	0.088824235
116	0x3d931ea9	0.07183582
117	0xbd6172d0	-0.055041134
118	0x3dc3cf05	0.0956097
119	0xbd267850	-0.040642083
120	0x3db60de7	0.088893704
121	0xbe02850e	-0.12746069
122	0x3ece7857	0.40326187
123	0xbd9904a2	-0.07471587
124	0x3dea7389	0.11447818
125	0xbde6050a	-0.1123143
126	0xbd972768	-0.07380563
127	0xbd02b62f	-0.031912025
128	0xbd662021	-0.056182984
129	0x3bfad65e	0.007654949
130	0x3d017141	0.031602148
131	0xbdf708aa	-0.120621994
132	0xbdc3af60	-0.095549345
133	0xbde2adbb	-0.11068293
134	0x3d905d1b	0.070490085
135	0x3d6eeff9	0.058334325
136	0xbdf6a5cd	-0.12043343
137	0xbc9a0f7e	-0.018806215
138	0xbcc32aab	-0.023824057
139	0xbd805d86	-0.06267838
140	0xbd4b91e6	-0.049699686
141	0x3daf292e	0.08552776
142	0x3ec4604c	0.3835472
143	0xbd2befd9	-0.041976783
144	0xbdc90b46	-0.09816603
145	0x3dfab2f8	0.12241167
146	0x3e8ad5de	0.27116293
147	0x3dfddfec	0.12396225
148	0x3df8fe41	0.1215787
149	0xbdfd776a	-0.12376292
150	0xbe09a47b	-0.1344165
151	0xbde5d8d1	-0.11222995
152	0x3e32390b	0.17404573
153	0x3d7151a4	0.05891575
154	0x3d93ae02	0.07210924
155	0xbddcd728	-0.10783225
156	0x3d9adce1	0.075616606
157	0x3dcf8d08	0.101343215
158	0x3deecba5	0.11659936
159	0xbdb1af56	-0.08676021
160	0x3dfac519	0.12244625
161	0x3dd34ea5	0.10317735
162	0x3cbec453	0.023286974
163	0x3ccedc19	0.025251435
164	0xbdc53a68	-0.09630281
165	0x3d9cd5b9	0.07657952
166	0x3e078421	0.13233997
167	0x3d807ce2	0.062738195
168	0x3cdff624	0.027339049
169	0x3eaa5242	0.33265883
170	0x3cd4c21d	0.025971467
171	0x3d141b44	0.036158815
172	0xbdccaced	-0.099939205
173	0x3d72eafa	0.059306122
174	0x3c0049b0	0.0078300685
175	0xbd970f88	-0.07376009
176	0x3ca82802	0.02052689
177	0xbd553744	-0.05205466
178	0x3dccc40c	0.099983305
179	0xb9b9e8b7	-0.00035459336
180	0xbe07cad8	-0.13260972
181	0xbdb2f7fa	-0.08738704
182	0x3c966b72	0.01836178
183	0x3dd408cd	0.10353241
184	0x3dfc96cd	0.123334505
185	0x3cc06c54	0.023489155
186	0xbdc4466f	-0.09583747
187	0xbde521a7	-0.11188059
188	0x3cf1291d	0.02943855
189	0x3e099cd3	0.1343873
190	0xbd1d01a3	-0.03833164
191	0xbda20f99	-0.07913131
192	0x3cd7f009	0.026359575
193	0x3d7ae67e	0.06125497
194	0xbc82e767	-0.015979482
195	0x3e6eba5e	0.23313281
196	0x3d81fc19	0.06346912
197	0xbd17c5ce	-0.037053876
198	0xbcb737f9	-0.022365557
199	0xbc242d91	-0.0100206295
200	0x3d9a2e32	0.07528342
201	0xbe023b78	-0.12717998
202	0xbd96363c	-0.07334563
203	0xba90b65f	-0.0011040679
204	0xbdea7073	-0.11447229
205	0x3e59b34b	0.21259801
206	0x3dd0ce70	0.10195625
207	0xbda89882	-0.082322136
208	0xbe031cb3	-0.12803917
209	0xbcb2cdb8	-0.02182661
210	0xbd9c822d	-0.076420166
211	0xbddce5d1	-0.107860215
212	0x3cccd586	0.02500416
213	0xbe103c41	-0.14085485
214	0x3b8f9bd7	0.004382591
215	0x3dd1a72a	0.10236962
216	0xbd8aec1b	-0.06783315
217	0x3f71bca2	0.94428456
218	0xbdfaaf82	-0.12240507
219	0x3c1dc85e	0.009630291
220	0x3de7fc72	0.11327447
221	0xbe0909b6	-0.1338261
222	0x3eea2670	0.4573245
223	0x3cce1fe3	0.02516169
224	0xbd4e6ffc	-0.050399765
225	0x3f4a79ff	0.790924
226	0x3d021779	0.031760667
227	0xbd54371b	-0.051810365
228	0x3dd745cd	0.1051136
229	0xbca2a020	-0.019851744
230	0x3d640304	0.05566694
231	0x3edc1037	0.4298112
232	0x3d56a642	0.05240465
233	0xbda97131	-0.08273543
234	0xbd2e9af1	-0.042628232
235	0xbddc46b1	-0.10755671
236	0xbdc289bd	-0.09498928
237	0x3dc6ed59	0.09713239
238	0x3dc5976b	0.09648021
239	0x3dcab0f2	0.09897031
240	0x3d5abef5	0.053404767
241	0x3de5a75e	0.112135634
242	0x3d0fdf2a	0.035124935
243	0xbd7ceb51	-0.061747853
244	0x3f53bab6	0.82706773
245	0xbd55d310	-0.052203238
246	0x3d4f73a4	0.050647393
247	0x3e05ab02	0.13053516
248	0x3cf314bb	0.029672971
249	0x3cd2aec8	0.025718108
250	0xbd201c04	-0.039089218
251	0xbdddc6c0	-0.10828924
252	0x3d0e5efa	0.034758545
253	0x3d49ad7c	0.049237713
254	0x3d2a0755	0.0415109
255	0xbcdb4d9a	-0.026770402

bias f4 [32]
0	0xbdc1b853	-0.09458985
1	0x3d09ef9a	0.033675767
2	0x3db7750a	0.0895787
3	0x3ce25d0e	0.027632263
4	0xbd87c6ed	-0.06629739
5	0x3dd3d9c4	0.1034427
6	0x3d911de7	0.070857815
7	0xbc9225bb	-0.017840257
8	0xbd7989f7	-0.06092259
9	0x3e07b8fb	0.13254158
10	0x3e561c5d	0.20909257
11	0xbdd471f0	-0.10373294
12	0x3de71b49	0.11284501
13	0x3d484aae	0.048899345
14	0x3d249ffe	0.040191643
15	0x3dbce1d2	0.09222759
16	0x3d0cc55b	0.0343679
17	0x3d747714	0.059683874
18	0x3dc612dd	0.09671567
19	0xbd43dc27	-0.047817376
20	0xbe5baab8	-0.21451843
21	0x3e260116	0.16211352
22	0x3dac5a80	0.08415699
23	0xbe0406f2	-0.12893274
24	0x3aedf6c5	0.0018155208
25	0xbd2063ee	-0.0391578
26	0xbe01fd86	-0.12694368
27	0xbdb12fe5	-0.08651713
28	0x3ba18578	0.004929241
29	0x3de4e23b	0.111759625
30	0x3b02056b	0.0019839655
31	0xbdcc5573	-0.09977236

weight f4 [256, 32]
0	0x3d387b87	0.04503968
1	0xbe2094ac	-0.15681714
2	0xbe1f9b71	-0.1558664
3	0x3c6699e8	0.01407478
4	0x3d3ab36c	0.045581266
5	0x3d9050fe	0.07046698
6	0x3de44a6e	0.11147009
7	0x3e7638ad	0.24045058
8	0x3e6a296d	0.22867365
9	0xbe00ae4a	-0.12566486
10	0x3e8575a6	0.2606632
11	0xbe502b47	-0.20329009
12	0x3e4754ab	0.19465892
13	0x3d7aa43c	0.061191782
14	0x3e8b4eae	0.27208465
15	0xbd4d1c21	-0.050075654
16	0xbcde8e65	-0.027167508
17	0x3d84a3c5	0.06476549
18	0x3d81fd7d	0.06347177
19	0xbe81ddd0	-0.25364542
20	0xbcefdb5c	-0.029279403
21	0xbe6a434c	-0.22877234
22	0xbc0d655d	-0.008630124
23	0xbcef3343	-0.029199248
24	0x3b39d1f6	0.0028353906
25	0x3c923f70	0.017852515
26	0x3d476e1e	0.048689
27	0xbe5ad35e	-0.21369693
28	0xbe5b0e52	-0.21392182
29	0xbd87b7c7	-0.066268496
30	0x3daf4a41	0.08559085
31	0xbe001c04	-0.12510687
32	0x3e863b44	0.2621709
33	0xbe8c39e5	-0.2738792
34	0xbcb123ba	-0.021623481
35	0xbe85423e	-0.260271
36	0xbd8f09d9	-0.069843
37	0xbe03879b	-0.12844698
38	0xbeebd824	-0.4606334
39	0x3dec7f42	0.1154771
40	0x3dc82ee1	0.097745664
41	0xbf345205	-0.7043765
42	0xbdaa01a4	-0.08301094
43	0x3ebbb0d7	0.36658356
44	0xbeb9a337	-0.36257336
45	0x3e5099b2	0.2037113
46	0xbe0fc667	-0.14040528
47	0x3daa2e66	0.08309631
48	0xbec9e9f8	-0.39436316
49	0x3da800a5	0.08203248
50	0x3d91805d	0.071045615
51	0x3e8340c3	0.25635347
52	0x3e3450c8	0.1760894
53	0x3e334acf	0.17509006
54	0xbf6088e3	-0.8770887
55	0x3e4f8289	0.20264639
56	0xbe16955b	-0.14705412
57	0x3ea32041	0.31860545
58	0x3d307526	0.04308047
59	0x3e029555	0.12752278
60	0x3c2335b6	0.009961536
61	0xbf03dcd3	-0.51508826
62	0xbd2eb840	-0.042656183
63	0x3e5252ef	0.20539449
64	0x3e00ae93	0.12566595
65	0x3e0eebc9	0.13957132
66	0xbe5cee50	-0.21575284
67	0xbd565904	-0.052330986
68	0x3ebfdb85	0.37472168
69	0xbd7b7f23	-0.061400544
70	0xbd90cac4	-0.070699245
71	0x3ec75cd3	0.38938007
72	0x3e842871	0.25812104
73	0x3da27e9a	0.079343036
74	0x3d85c9c8	0.06532627
75	0xbbcbed47	-0.006223354
76	0xbdca7fe3	-0.09887674
77	0xbe4c88e8	-0.199741
78	0x3e84087c	0.25787723
79	0xbe9fa35f	-0.3117933
80	0xbe6d633c	-0.23182386
81	0xbde3ffc0	-0.11132765
82	0xbec034a1	-0.37540153
83	0xbe4fd62d	-0.20296545
84	0xbd804fbd	-0.06265209
85	0xbe811758	-0.25213122
86	0x3dd76ef0	0.105192065
87	0xbcc2580c	-0.023723625
88	0x3e2ab650	0.16671109
89	0x3e520474	0.20509511
90	0xbe2c1112	-0.16803387
91	0xbde7b3a3	-0.1131356
92	0xbe9b004e	-0.3027367
93	0xbe5c8593	-0.2153533
94	0xbdde7ade	-0.10863279
95	0x3d3ece5c	0.04658352
96	0xbda7243b	-0.08161207
97	0xbe952d9d	-0.29136363
98	0x3e9732e2	0.29531008
99	0xbe624dab	-0.2209994
100	0xbe2f4ac9	-0.17118372
101	0xbcf3077c	-0.029666655
102	0x3c14f992	0.009092705
103	0x3dc09f47	0.0940538
104	0xbe95b4d8	-0.29239535
105	0xbe4bd10a	-0.19903961
106	0x3dbbf739	0.09178013
107	0x3e1aface	0.15134737
108	0xbd8972a8	-0.06711322
109	0x3d44c838	0.048042506
110	0xbd94a415	-0.07257859
111	0x3ea8ba65	0.32954708
112	0xbecc3fd9	-0.39892462
113	0x3e7cd08d	0.24688931
114	0xbccfbe80	-0.025359392
115	0xbe498b13	-0.19681959
116	0x3d7fae4f	0.062422093
117	0x3c2e11f2	0.010624396
118	0xbe855144	-0.26038563
119	0xbe03314c	-0.12811774
120	0x3e0cbf42	0.13744834
121	0x3e49b243	0.19696908
122	0xbd764ec6	-0.060133718
123	0xbd786d42	-0.06065107
124	0x3dee7fdf	0.11645483
125	0xbf1555cb	-0.58334035
126	0xbe7ad69c	-0.2449593
127	0x3e221da7	0.15831624
128	0x3d93dc69	0.07219774
129	0x3e169162	0.14703897
130	0xbe1a271b	-0.1505398
131	0x3bece878	0.007229861
132	0x3ce4c5b6	0.027926307
133	0x3e137958	0.14401758
134	0x3d4e1c2e	0.050319843
135	0x3e1d083f	0.15335177
136	0x3cf22a9b	0.029561331
137	0x3a590dad	0.0008279931
138	0xbe13f600	-0.1444931
139	0xbe13b629	-0.14424957
140	0xbdd0fdd2	-0.102046624
141	0x3cf3c28a	0.02975585
142	0x3c25990f	0.010107293
143	0x3e1dd5fb	0.15413658
144	0x3e1f2f8c	0.15545481
145	0xbe066e09	-0.13127913
146	0xbde06f89	-0.10958774
147	0x3dfc6fd8	0.1232602
148	0xbe12615c	-0.14294952
149	0xbe051e55	-0.12999852
150	0x3e203b7a	0.15647689
151	0x3dfe1264	0.124058515
152	0x3e1d8fe9	0.15386929
153	0x3e1149b4	0.14188272
154	0x3d31ef91	0.04344136
155	0x3cbc8f96	0.023017686
156	0xbe352002	-0.17687991
157	0x3aa96a11	0.0012925287
158	0xbe106daa	-0.14104334
159	0x3daece59	0.085354514
160	0x3ea3d546	0.31998652
161	0xbdba0d17	-0.09084528
162	0xbda0bfe9	-0.07849104
163	0xbe89a1f4	-0.26881373
164	0xbd0bcc1a	-0.034130193
165	0x3e0e3e3a	0.13890925
166	0xbe9e1528	-0.30875516
167	0xbcd7eaca	-0.026357073
168	0x3bfe6084	0.0077629704
169	0xbe31eecb	-0.17376249
170	0x3cc8f2b2	0.024529789
171	0xbdea2ec6	-0.114347026
172	0xbe4cae2c	-0.19988316
173	0x3e855958	0.26044726
174	0xbe3e6154	-0.18591815
175	0x3d2524e1	0.040318374
176	0xbe86151e	-0.26187986
177	0xbdc4ed75	-0.09615604
178	0x3da29def	0.0794028
179	0x3e382550	0.17982984
180	0x3db16000	0.08660889
181	0xbdb4c3be	-0.08826397
182	0xbf031cc0	-0.51215744
183	0x3bc88769	0.006119658
184	0xbe2a1a62	-0.16611627
185	0x3e937149	0.28797367
186	0x3c4dbcc6	0.012557214
187	0x3d25e5be	0.040502302
188	0xbe211444	-0.15730387
189	0xbedb6ff9	-0.42858866
190	0xbe9119c3	-0.28339967
191	0x3e2b825c	0.16748947
192	0xbd2871b2	-0.041124053
193	0xbe09005c	-0.13379043
194	0x3d2cd3d9	0.04219422
195	0xbe07635e	-0.132215
196	0xbe475706	-0.1946679
197	0x3e74a524	0.23891121
198	0x3e732d33	0.23747711
199	0x3e1ba000	0.15197754
200	0xbe04af80	-0.12957573
201	0x3e88ad4f	0.26694724
202	0x3e3146b4	0.17312127
203	0x3d6f4ee8	0.05842486
204	0x3e425a6d	0.18979807
205	0xbd365a8a	-0.04451994
206	0xbd208124	-0.039185658
207	0x390c5990	0.00013384805
208	0x3e5e72d3	0.2172349
209	0xbdeca0e8	-0.11554128
210	0x3e066f38	0.13128364
211	0xbd871160	-0.06595111
212	0xbe935f30	-0.2878356
213	0x3c7ecbf4	0.015551556
214	0x3e13bc27	0.14427243
215	0xbd8ec9f8	-0.06972116
216	0x3e2e1405	0.16999824
217	0x3c24a28b	0.010048519
218	0x3d335706	0.043784164
219	0xbe3aba9e	-0.18235251
220	0x3c7e2a4f	0.015513017
221	0x3dd7c1a4	0.10534981
222	0xbdfbe8d7	-0.1230027
223	0xbe6eb0bf	-0.23309611
224	0xbd644b02	-0.055735596
225	0x3de0c32e	0.109747276
226	0xbe5beee3	-0.21477847
227	0x3e157009	0.1459352
228	0x3de65761	0.11247135
229	0xbcf26e8d	-0.02959373
230	0x3e2abaf3	0.16672878
231	0xbc47505d	-0.012165156
232	0x3e750f7b	0.23931687
233	0xbb8590f7	-0.004076119
234	0x3e946116	0.2898032
235	0xbe7122bf	-0.23548411
236	0x3e121442	0.1426554
237	0xbcbbea3c	-0.02293884
238	0xb6ef24c0	-7.1270333e-06
239	0x3d145fd4	0.0362242
240	0x3d22a71a	0.03971014
241	0xbb5fc056	-0.003414174
242	0xbe2da12b	-0.16956012
243	0x3c6c9ca7	0.014441646
244	0x3d46a4f1	0.048497144
245	0x3d9c920f	0.07645046
246	0x3e400a9b	0.18754046
247	0xbe826f21	-0.2547541
248	0x3de860dc	0.113465995
249	0x3e1380ca	0.14404598
250	0xbdf7ae14	-0.1209375
251	0xbe2ee138	-0.17078102
252	0xbcf31e2c	-0.029677473
253	0x3e668c7b	0.22514527
254	0xbd6384a9	-0.055546436
255	0xbe189b9f	-0.14903115

bias f4 [256]
0	0x3dd62745	0.10456709
1	0xbe9b3ddc	-0.30320632
2	0x3db89d7b	0.09014412
3	0xbe4beef7	-0.19915377
4	0xbcbf0eed	-0.023322547
5	0xbe4b3324	-0.19843727
6	0x3e8535fb	0.26017746
7	0x3d9833b4	0.074317366
8	0x3e1e8d00	0.15483475
9	0x3cf34065	0.029693792
10	0x3e7c42cb	0.24634854
11	0xbe29ff56	-0.16601309
12	0x3e31c0ea	0.17358747
13	0xbe165437	-0.14680563
14	0xbd9d16f6	-0.07670395
15	0x3e6380f1	0.22217156
16	0x3ee70efd	0.45128623
17	0x3e9e7aca	0.30953056
18	0x3eb12192	0.34595925
19	0x3f02bc4b	0.5106856
20	0x3e4ae81c	0.19815105
21	0xbd03ab05	-0.03214552
22	0xbe0ce2ad	-0.13758345
23	0x3f0835d5	0.5320714
24	0xbe0b300a	-0.13592544
25	0x3e5da7b5	0.21646006
26	0x3d093589	0.03349832
27	0x3d43205c	0.047638282
28	0x3c01dde0	0.007926434
29	0xbe6fd00b	-0.23419206
30	0x3e0a09d5	0.13480313
31	0x3c0a19a3	0.008428964
32	0xbd221a90	-0.039576113
33	0x3e14ba20	0.14524126
34	0x3e060d6f	0.13091062
35	0x3e6b3414	0.22969085
36	0xbebb550f	-0.36588332
37	0xbbbb353c	-0.005713133
38	0x3d11700e	0.035507254
39	0x3db91fbe	0.090392575
40	0xbe76b7c3	-0.24093537
41	0x3e3ec526	0.18629894
42	0x3d10c29e	0.03534185
43	0x3e43aa73	0.1910799
44	0x3d423a5a	0.04741893
45	0xbd7e9c45	-0.06216075
46	0x3e97096d	0.2949938
47	0x3e06299f	0.13101815
48	0x3ec323bf	0.3811321
49	0x3e2199e3	0.1578136
50	0x3bda7a3a	0.0066674026
51	0xbdc757c9	-0.097335406
52	0x3bd08861	0.006363914
53	0xbdd3a752	-0.10334648
54	0x3e6addbb	0.22936146
55	0xbd2b6abc	-0.041849837
56	0x3ea9db6d	0.3317522
57	0x3e4d438a	0.20045295
58	0xbe48f2e5	-0.19623907
59	0xbeb3a5ce	-0.35087436
60	0x3ebaf0f7	0.36511967
61	0xbe59f556	-0.21284994
62	0xbe8865c7	-0.2664015
63	0xbe04f04f	-0.12982295
64	0x3e378523	0.17921881
65	0x3bee4d1b	0.0072723753
66	0x3e48660b	0.19570176
67	0xbc8fe9ee	-0.017567601
68	0x3e0df70a	0.13863769
69	0x3e675af8	0.22593296
70	0xbe7e6d49	-0.24846376
71	0x3edea413	0.43484554
72	0x3f048196	0.5176023
73	0xbd0ce3c7	-0.034396913
74	0x3d8ff44d	0.070290186
75	0xbe0b4db0	-0.13603854
76	0xbd5f39a2	-0.054498322
77	0x3e72e642	0.23720649
78	0xbe28729f	-0.16449974
79	0xbabb2ac3	-0.0014279712
80	0x3d8d8e3f	0.06911897
81	0xbd82356a	-0.06357844
82	0x3ead7cda	0.33884317
83	0xbe0d2e44	-0.1378718
84	0x3eee41fe	0.46534723
85	0x3e056f6b	0.13030784
86	0x3dbf7532	0.09348525
87	0x3daf1828	0.08549529
88	0xbdb38d20	-0.08767152
89	0xbe13c42b	-0.14430301
90	0x3ea0c634	0.31401217
91	0x3e9c934b	0.30581126
92	0x3e38a771	0.18032624
93	0xbe269f36	-0.16271672
94	0x3d9d9940	0.07695246
95	0x3e09d75d	0.13461061
96	0xbe1da7db	-0.15396063
97	0x3e1deb11	0.15421702
98	0x3df38ed1	0.118924744
99	0xbe8d72a8	-0.27626538
100	0x3e4a9226	0.19782314
101	0xbe7a491c	-0.24441952
102	0x3e1449a1	0.14481212
103	0xbe8da238	-0.27662826
104	0x3e11a460	0.1422286
105	0xbe7581bf	-0.23975275
106	0x3e16e4dd	0.14735742
107	0x3e5fbf70	0.21850371
108	0x3e4b9b57	0.19883476
109	0x3bea8bac	0.0071577635
110	0x3e7f5f2b	0.24938647
111	0xbd023fb2	-0.031799026
112	0xbdbf9e90	-0.09356415
113	0xbe3036fb	-0.17208473
114	0x3e80a797	0.2512786
115	0x3dc8ea15	0.098102726
116	0x3e5f3d8d	0.21800824
117	0x3d46d387	0.048541572
118	0x3f038df2	0.51388466
119	0xbe335265	-0.175119
120	0xbe7dfb35	-0.24802859
121	0xbe426da2	-0.18987134
122	0x3c7039f7	0.014662257
123	0xbe75470b	-0.23952882
124	0x3cfe6c6b	0.031057557
125	0x3e6948ef	0.22781728
126	0x3e32abee	0.17448398
127	0xbe769263	-0.2407928
128	0x3ef06566	0.4695236
129	0x3d2ef0f4	0.04271026
130	0x3ea8b85d	0.32953158
131	0x3ea3a875	0.3196446
132	0x3e1e4c84	0.15458876
133	0xbe350a2c	-0.17679662
134	0x3ad890a9	0.0016522604
135	0xbb2aefa7	-0.0026082785
136	0x3e196914	0.1498149
137	0x3db9bd82	0.09069349
138	0x3dadebb1	0.0849222
139	0x3cc3e37d	0.023912186
140	0xbd4893d0	-0.04896909
141	0x3eb3b924	0.3510219
142	0xbeddd455	-0.4332606
143	0x3e8e36de	0.27776235
144	0x3e664113	0.22485761
145	0x3e5be06c	0.21472329
146	0x3e67e1ff	0.22644804
147	0x3e819778	0.25310874
148	0xbe1d6955	-0.15372212
149	0x3d685737	0.0567238
150	0x3dc51905	0.09623913
151	0x3c98b257	0.018639727
152	0x3e54fba0	0.20799112
153	0x3e46f82f	0.19430612
154	0xbe916e35	-0.28404394
155	0xbe3d3187	-0.18475924
156	0xbdfb1d49	-0.12261445
157	0xbced33bd	-0.028955335
158	0x3e8be09f	0.2731981
159	0xbde79afc	-0.11308858
160	0xbe1dd9ba	-0.15415087
161	0xbd0f33d7	-0.034961548
162	0x3e34ab67	0.1764351
163	0x3e1fc1c0	0.15601254
164	0xbda2aff8	-0.079437196
165	0xbe36f6ae	-0.17867538
166	0x3ddb27c0	0.10700941
167	0xbe0711b9	-0.13190354
168	0x3ea16c69	0.31528023
169	0xbd8e78db	-0.06956645
170	0x3e3c3a42	0.18381599
171	0x3d9a4d15	0.075342335
172	0x3c4183c9	0.011811205
173	0x3d505e73	0.050871324
174	0xbe3dda51	-0.18540312
175	0xbdc22af1	-0.09480847
176	0x3e0a42c7	0.13502036
177	0x3ca50661	0.020144643
178	0x3d554f73	0.05207772
179	0xbcab9efd	-0.020949835
180	0x3e843319	0.25820234
181	0xbd326768	-0.043555647
182	0xbd4a6f64	-0.049422637
183	0x3e34e8b7	0.17666899
184	0x3cec3f1a	0.028838683
185	0x3c6e745a	0.014554108
186	0x3d57f8b6	0.052727424
187	0x3ee40c9d	0.44540873
188	0xbd98dfa1	-0.07464529
189	0x3dc6ac57	0.0970084
190	0x3e552199	0.20813598
191	0x3f13324f	0.5749864
192	0xbe921bcd	-0.28536835
193	0xbdb4add1	-0.08822215
194	0xbe800c13	-0.25009212
195	0x3da1fbf1	0.07909382
196	0xbd5c8f70	-0.05384773
197	0x3e205859	0.15658702
198	0x3e6ab5bd	0.2292089
199	0xbe914d71	-0.28379396
200	0xbdd2cd99	-0.10293121
201	0x3e10ee27	0.14153348
202	0xbd82513b	-0.0636315
203	0x3e5da4e2	0.21644929
204	0x3e432263	0.19056086
205	0x3f123898	0.57117605
206	0xbe2c74ec	-0.16841477
207	0xbe181462	-0.14851525
208	0xbca367e2	-0.019946996
209	0x3a9435a6	0.0011307492
210	0x3d6329a5	0.055459637
211	0x3de04413	0.10950484
212	0x3e8ac081	0.27099994
213	0x3ea9a11b	0.33130726
214	0xbe1ada03	-0.15122227
215	0x3e40ebbb	0.18839924
216	0xbe1b2c46	-0.15153608
217	0x3e6a1739	0.22860421
218	0xbe62bc65	-0.2214218
219	0xbd4fb865	-0.05071296
220	0xbd949451	-0.072548516
221	0x3e64d4d3	0.22346811
222	0xbcf89906	-0.030346405
223	0x3f0ada73	0.5423958
224	0x3e82d1c1	0.25550655
225	0x3e54bcbd	0.20775123
226	0xbdf44a1f	-0.119282
227	0x3e87ed11	0.26548055
228	0x3e18faf0	0.14939475
229	0xbd9bf07a	-0.07614227
230	0x3da5c738	0.080946386
231	0xbe7a9cf9	-0.24473943
232	0x3da446dc	0.08021328
233	0x3dca8f77	0.09890645
234	0x3e4f34de	0.20235011
235	0x3ddba2cf	0.10724413
236	0xbc4982e3	-0.012299272
237	0xbe81d0bd	-0.25354567
238	0x3eee143c	0.46499813
239	0xbe31f0ca	-0.1737701
240	0x3db6b021	0.08920313
241	0xbe8cc2c5	-0.27492347
242	0x3e68a198	0.22717893
243	0xbdd36826	-0.10322599
244	0xbebebb2a	-0.3725217
245	0x3e240f7e	0.16021535
246	0xbd8ef4cf	-0.06980287
247	0x3c9c19ce	0.019055273
248	0xbc9815e4	-0.018565126
249	0x3decc195	0.1156036
250	0xbd1f2636	-0.0388548
251	0x3e8ff37f	0.2811546
252	0x3e2badaf	0.16765474
253	0xbe05e886	-0.13076982
254	0xbd4ddc85	-0.050259132
255	0x3df449ae	0.11928116
