models/autoencoder_sw_100k_n.pt (torch, 454075 bytes, 12 tensors)

weight f4 [128, 2]
00000000: 9fe2 c73e 0b0d 2cbf dc2b 033f 6990 d3bd
00000010: 0970 1f3f d43b 143f 6b59 80be 5ff9 ca3d
00000020: 0d8f ebbe 3044 d3bb e1b8 3dbf 98cf 51bf
00000030: 06cf 11bf ab2d 913e b469 023f 4ccd cb3e
00000040: b5ff cd3e a353 6d3d e22e 683e 1615 1fbf
00000050: 61a7 fcbe aec3 463e c601 b83d 6a33 1b3f
00000060: a573 e5be 80a3 2e3f 760c 94be 83e5 a3be
00000070: c34b 38bf 2f8d 3cbf cd51 d93e 2f06 833d
00000080: 2f5a fa3e f9ca 073f e0ad 91bf ddc3 453f
00000090: e5b1 67be 8684 723e 5716 153c ad39 b53e
000000a0: 0857 d43e a48f 13be f9ac e93e c649 373e
000000b0: 5d2f 363f 3d64 21bf cd97 0cbe 4a05 0d3f
000000c0: 299e 80be efeb 203e ad11 953e 27ab 4fbc
000000d0: ce28 46ba 65e7 353b 85f9 11be e4ff 9f3e
000000e0: d797 30bf afee cb3e 2acf 10bf 58b7 043f
000000f0: cfb7 623f bc77 e8be 81f8 6cbe 4d2a 80be
00000100: 104f e8be 3bb5 003f 3393 913e 4ac5 76bd
00000110: 3a81 8a3e 76de 373f 3c8b efbc c8b8 9abd
00000120: 2d20 99be bdbf 0a3f b6af aebe 2244 2abf
00000130: 3837 bcbe 275d 1e3e 98ac 61bd 53b7 bb3c
00000140: ba99 4bbf d849 053f 5b9e 98bb d9d9 153e
00000150: 3dd7 f93c 77be 043f def9 25bb cb6c 08bb
00000160: 427b 9d3d 1df4 003f 04bd 88bb 09f2 96bb
00000170: 2b9c 01bf b4a2 d53d 9ee8 3d3f e504 6abe
00000180: dfac 60be 2552 4dbe 5a4c bf3d 3388 f2bd
00000190: f5f8 243f 82bf 293f 30ab 373f 2bfa 45bf
000001a0: e33e 3b3f c8cd 173e a397 073f 035c babe
000001b0: 1db5 4fbf 2649 203f 3609 52bf 0705 183f
000001c0: c610 093f 85c4 273f a56f 2bbf 5850 afbd
000001d0: 8785 233f df6f e73e 5316 21bf a661 6abf
000001e0: 1c0f 1bbe a2e2 363f 298e 153e e8a5 7f3d
000001f0: e1af 5bbf 440e c73e f28d a23e ba0b 71be
00000200: 60c4 3c3f 453c 3cbf 6032 d63c c176 c5be
00000210: 7dff 84bd 5476 a73e bdcd 79be 630a 42bd
00000220: bbef 993e 14c0 6d3e 7ca5 debe ba8c 1fbf
00000230: a5f5 41bf 6a13 033f 04a3 20bf e604 80be
00000240: c926 193e 6908 813d d583 7dbe a7f6 4e3d
00000250: 467d 323f 40da 1e3f 53a7 ca3e 3f4d 1a3f
00000260: 42fa 0d3e 688d 823e 03ac 4abe 35c2 043f
00000270: a479 83bc 8b32 d53e 7d81 143f efc7 1c3e
00000280: a6d1 c3be 37cf 88be 86f5 1ebd 922f 2dbe
00000290: 9821 78bf acb1 003f 9a25 3b3e 337b 7a3e
000002a0: 12dd e7be e0e8 f5be a919 93be 4e21 aebe
000002b0: b1c5 893e 8410 3e3f 74ba b439 acef cd3b
000002c0: f2d9 363d 54b8 eabe 7bdf adbd 5284 7cbe
000002d0: 8043 ad3e 561d 3abe 75a9 9fbe b2b0 71be
000002e0: 8319 3bbf efaa 75bf 8d1e 503e f5ac 1dbf
000002f0: 6b99 043f 2f3e 1cbf 4131 8e3d ced8 54be
00000300: fa4a d03e 5c59 9cbc 8295 debd 9e8d 143f
00000310: 8b4e e0bd 8964 193d 1aa8 55bf 88cb bd3e
00000320: 86ba 2bbf 9e9e b23e 7842 7e3e e8bd 07bf
00000330: 4f4d 94bd 463c 193f 5121 22bf efbd c43b
00000340: 052c 233f 0ed2 50bf 60d1 44bf dad6 403e
00000350: 689e 25bf ae48 a3be d4d9 0b3f b359 2a3e
00000360: 707c 36be dcc8 5dbf 4892 24bf 9c72 953d
00000370: 6243 56be d221 6f3c 37da 223f 6aed 093f
00000380: a39c 37bf 85c4 d13e 1f49 2bbe 594d df3e
00000390: 2608 63be 0887 923d c2c2 2a3f d7b4 503f
000003a0: 3a6e d43e bbf2 3a3d 68cb 73be 77fb bfbd
000003b0: 01d4 cb3e f979 33bf 9311 3c3f c52d 4b3b
000003c0: 0b05 ecbe 198b e0bd b90e 653e 9d65 35bf
000003d0: b5e8 563e bafd 303f 9afd 34bf df05 3bbf
000003e0: 1cef 3dbc 54e4 e7bd c0d7 ab3e 2c5e 15bf
000003f0: 1381 3dbe 9280 003f c47f bc3d f900 0fbf
0.39040086 -0.672074 0.512388 -0.103302784 0.6228033 0.5790379 -0.2506822 0.09910845
-0.46007577 -0.0064473376 -0.7411023 -0.8195739 -0.5695652 0.28355154 0.5094254 0.39805067
0.4023415 0.05794109 0.22674134 -0.6214155 -0.4934645 0.19410583 0.08984713 0.60625327
-0.44814792 0.6821823 -0.28915757 -0.3201104 -0.71990603 -0.7365293 0.42445222 0.06397664
0.4889693 0.53044087 -1.1381187 0.7725199 -0.22626455 0.23683366 0.0090995645 0.35395566
0.4147265 -0.14410263 0.4563978 0.17899236 0.7116602 -0.63043576 -0.13729782 0.55086195
-0.25120667 0.15715002 0.29115048 -0.012675083 -0.0007559181 0.002775633 -0.1425534 0.31249917
-0.6898169 0.3983054 -0.5656611 0.5184226 0.8856172 -0.4540385 -0.23141672 -0.25032273
-0.4537282 0.50276536 0.28432617 -0.060246743 0.27051717 0.71823823 -0.029241197 -0.075547755
-0.2990736 0.5419882 -0.34118432 -0.6651021 -0.3676088 0.15465222 -0.05509624 0.022914564
-0.79531443 0.520658 -0.0046575493 0.14633884 0.030498141 0.51853126 -0.0025325934 -0.0020816799
0.07689525 0.5037249 -0.004172923 -0.0046064896 -0.5062892 0.10431424 0.7418307 -0.2285343
-0.21940945 -0.20050867 0.09340735 -0.11842384 0.6444238 0.6630784 0.71745586 -0.7733485
0.7314283 0.14824593 0.52965754 -0.36398324 -0.8113573 0.62611616 -0.82045305 0.5938267
0.5354122 0.6553424 -0.6696723 -0.08560246 0.6387562 0.45202538 -0.6292469 -0.9155525
-0.15142483 0.71439564 0.14605011 0.06241408 -0.85815245 0.3887807 0.3174892 -0.2353963
0.73737144 -0.73529464 0.026147068 -0.38567165 -0.06494043 0.32707465 -0.24394889 -0.047373187
0.30065712 0.23217803 -0.4348563 -0.62324107 -0.7576545 0.512015 -0.6274874 -0.25003737
0.14956202 0.06300432 -0.24757321 0.050528195 0.697224 0.62051773 0.39580783 0.6027412
0.13864997 0.2549851 -0.1979218 0.51858836 -0.016049214 0.41640124 0.58010083 0.15310644
-0.38245887 -0.26720592 -0.03880837 -0.16912678 -0.9692626 0.50271106 0.18276063 0.2446106
-0.4528585 -0.48029232 -0.28730515 -0.34009784 0.2690864 0.7424395 0.00034471194 0.0062846746
0.044641443 -0.45843756 -0.08489891 -0.24659851 0.3384056 -0.18175253 -0.31183973 -0.2360256
-0.730858 -0.9596395 0.20324154 -0.61592036 0.517966 -0.61032385 0.06942988 -0.2078583
0.40682203 -0.019085579 -0.1086836 0.5802859 -0.10952481 0.037449393 -0.8345963 0.37069345
-0.6708149 0.3488664 0.24830043 -0.5302415 -0.07241308 0.59857595 -0.63332087 0.006004087
0.63739043 -0.8157052 -0.7688198 0.1883196 -0.64694834 -0.31891388 0.54629254 0.1663578
-0.17820907 -0.8663461 -0.6428571 0.07297251 -0.20924142 0.014595466 0.6361422 0.5387789
-0.71723384 0.40970245 -0.16727112 0.436137 -0.22171077 0.071546614 0.66703427 0.8152594
0.41490346 0.045641642 -0.23808062 -0.09374135 0.39810184 -0.7010799 0.73464316 0.0031002623
-0.46097597 -0.10964031 0.22368897 -0.70858175 0.20987208 0.69137156 -0.70699465 -0.73055834
-0.011592653 -0.11322847 0.33563042 -0.5834682 -0.18506269 0.5019618 0.09204057 -0.5586086

bias f4 [128]
00000000: 5ee7 ba3e 3dce 65be f468 a03d 77e3 b33d
00000010: a918 193f 7aba 32bf 2501 8b3e d613 3cbf
00000020: 9db2 123c 084a 9e3e 16d3 ad3e d0fa 92be
00000030: 54fb afbe 6854 c63e e7c7 15bf bb74 dfbe
00000040: 9bca 4dbe b24c 72bd 66f2 3c3e 6425 d6be
00000050: 1110 3fbe 2a95 b83e e292 b93b 48b4 c7be
00000060: ed80 fabe eb73 82be 7f55 0fbb 0ebd a3be
00000070: d5e1 7e3e 2462 79bd 542f a8be 4783 113f
00000080: ebdb 04be 1bd2 19be 95db d0be f611 b33d
00000090: 13c6 85be 5641 59bf 0aeb f63d 5d3d 13bf
000000a0: 6066 cb3e fb69 eabe d8c1 88bb 6714 d73b
000000b0: 6a35 19bf 1bac 733c 7846 bc3e ac2f c7be
000000c0: ceca 953e 36e6 163d eaf1 1cbf 8d59 553e
000000d0: db8e 9ebe 6e91 d0bd 3359 7bbe 4aa4 e13e
000000e0: 28ae 513d 2709 903e 8998 f9be be6c 29bf
000000f0: d595 07bf 41c4 11be 36dc e43e 195e 21bd
00000100: d125 963e 7cb5 a33e ae45 09bd e5b6 bb3e
00000110: 6fce 0abf b7d7 dabe b994 043e bc69 5bbf
00000120: 8d0e eebe 8970 f83d 9851 cdbe 7a34 9b3d
00000130: 6a53 08bc 6fb9 a6be d69a febc c78b 09bf
00000140: d0d2 1b3f ed1c 2f3e 3602 56be 87a4 b6be
00000150: 616e 103f 312f c73c 5dad 0bbf 4f2f eebb
00000160: 1727 313f a7dd 8b3e 0130 01bf 8e6a ff3e
00000170: b5d5 18bf a4cf a53e 3b11 b73e 131d 053e
00000180: 6333 e9bd 3bb8 a3be e580 98be 2c58 ef3e
00000190: 17ce 893e 7a66 a73e 8394 adbe 8905 cf3e
000001a0: a251 1c3e 1faa 7abd a13e 233f 6f6b 5cbe
000001b0: 7e22 c7be 000a 253f f610 003e 0443 85be
000001c0: eda3 99bd daf6 8bbe b346 b1be 0d14 dabe
000001d0: e3a6 8bbe 1807 633e 74a0 6c3e 49b1 a5be
000001e0: b310 163f b00a b43e 43b7 e7be db3f 4fbf
000001f0: 9b6e da3d 93f9 153f 8d4f 9fbe fa1e c63e
0.36504644 -0.22441955 0.07832518 0.0878362 0.59803253 -0.6981579 0.2714931 -0.7346777
0.008953718 0.30915856 0.33950108 -0.2870698 -0.34371436 0.38736272 -0.5850815 -0.43643746
-0.20096819 -0.059155174 0.18451843 -0.41825402 -0.18658473 0.36051303 0.0056632617 -0.3900473
-0.48926488 -0.25479063 -0.0021871028 -0.31980175 0.24890836 -0.06088461 -0.32848608 0.5684094
-0.12974517 -0.15021555 -0.40792528 0.0874366 -0.2612768 -0.8486532 0.12056549 -0.5751551
0.39726543 -0.45783982 -0.0041734986 0.0065637114 -0.5984713 0.014872576 0.36772513 -0.38903558
0.2925629 0.03684064 -0.6130663 0.20834942 -0.30968365 -0.101839885 -0.24545746 0.44070655
0.05119148 0.28131983 -0.48749188 -0.6618155 -0.52963 -0.14235021 0.44699258 -0.03939638
0.29325727 0.319744 -0.033513717 0.36662975 -0.5422124 -0.42742702 0.12947358 -0.8570821
-0.46495476 0.121308394 -0.40101314 0.075783685 -0.008320669 -0.3256335 -0.03107969 -0.5372891
0.6086855 0.17100878 -0.20899281 -0.356724 0.56418425 0.024314495 -0.54561406 -0.007268823
0.6920027 0.27317545 -0.50463873 0.49885982 -0.5970109 0.3238498 0.35755333 0.12999372
-0.11386754 -0.31976494 -0.2978584 0.46746957 0.26915047 0.3269537 -0.33902368 0.4043391
0.15265515 -0.061197396 0.6376744 -0.21525358 -0.38893503 0.64468384 0.1250647 -0.2602769
-0.075019695 -0.2733677 -0.34624252 -0.42593423 -0.27275762 0.22170675 0.23108083 -0.3236182
0.5861923 0.35164404 -0.45257005 -0.8095681 0.106656276 0.58583945 -0.3111538 0.38695508

weight f4 [128, 128]
00000000: 4feb 3a3f be4d 923e 9257 52bd 7264 df3b
00000010: 7c31 6fbd 15b2 9cbd bed6 02be 6e66 15be
00000020: f1de fc3d b882 d73e 9e56 14be dee0 2abe
00000030: f3c1 95be 68c0 953d 59fb 3cbd 3ec1 b23b
00000040: 3ad9 d83a 0fed 65be 3cc0 d6bc 53fb 9abd
00000050: 1276 2e3e a890 31bc f642 2c3f e111 69be
00000060: f064 f1bd f64d a93d aef8 533d 197a 05be
00000070: 0b13 b6be 3500 50bf 0114 0d3f ca23 f83d
00000080: 34aa 15be 7fe9 313e 8f76 4bbe af5d 793b
00000090: 7099 dfbe 5a8d 11be 4f0e 4abd cb33 063b
000000a0: 007a 91be a0a8 c4bc 5033 94bd 6b9f b0bc
000000b0: a81f 06be fa70 1fbd 3e25 5abe bf19 e43d
000000c0: 5361 ed3b f429 68bd 6ccb 2ebe 36ee 313f
000000d0: ffa2 0e3e 7a97 ee3e 13b3 96be ff02 53be
000000e0: 9256 41bd 296b a1bd 6000 1dbd 1f8c ddbd
000000f0: 5912 f6be c47b 71bc bb0a dabe a83c 9e3c
00000100: 182b fd3e 3a4f ac3e 38a5 263d 0e6c 543d
00000110: 9d4e 6ebc f579 cabc 7a72 85be 9b69 12bc
00000120: 286f ddbc 6251 eabc 8fc9 1abb d677 6cbd
00000130: d206 3bbd cc7e c0be 2288 1abd d73f 5d3e
00000140: 2d56 3f3e b9af b23d ef42 85bd 689c efbc
00000150: 08fd e83d 47cc 7a3d 6afa 99be ac78 a4bd
00000160: 7724 7b3e e456 1b3e 74b0 923d 25b9 833d
00000170: c6fd bdbd 3083 883e 54e6 553e afce 793d
00000180: 7cd5 303e 9c40 62be 2c51 02be 6b23 80be
00000190: a04a 3bbe 7126 0d3f b1dc b7be 5b8c 4bbe
000001a0: 5863 8b3f fbff edbb 3ecd 753d e3c6 033e
000001b0: f9a6 94bd 2b4c e2bd ce35 f1bd 364d 043b
000001c0: 2324 0ebe 3728 09be 7550 08bd 3f83 13be
000001d0: 288f 9f3e d280 46bc 4a17 0d3f e929 963e
000001e0: bf25 89bd 987b f03e 70ee c7be 2aea 47bd
000001f0: 748b a53d f3fd 923e 2559 81be 473e 493f
00000200: 1ed3 b4be 56a7 adbd f65c 9b3b d5d4 88bd
00000210: 85a5 83bd 993e 113e b702 60bd a2a8 423e
00000220: e58b 8c3d 17e5 eebd 99bc 743c 976d 0f3d
00000230: 9da5 193e 114d 5dbd 3798 803c e49b d5bc
00000240: 537e d13d 6ab8 64be 42b4 463d 6b4b a33d
00000250: f728 2cbc 375b 9f3d e57b 83be 3f27 743e
00000260: ba80 2bbd a740 973d fe6b 2bbd ce3a 073e
00000270: 1c32 883d b1ad a33d 7dba 57bd 9909 16bd
00000280: 1125 633d 3b38 1fbd f848 603e 56d4 763c
00000290: b0f1 9b3d 4879 eebb 0cec 75bd b57d b3bc
000002a0: 8ab7 9dbd 7e8d 833d 2f48 f33d 2d1d 89bd
000002b0: 907b 083e d672 f83d 6032 a8bd 71bc efbc
000002c0: 6f9f abb8 ff31 22bd e9b1 5e3e 70cb 99be
000002d0: e8d5 45bc 8e7c bfbd afcb cebc 92b3 153d
000002e0: 0c4e 853c 915d e6bd 0dea 633e f3c1 3d3d
000002f0: 81c4 723e 220a bdbb 6199 49be d54e 823d
00000300: d11b 82be 1556 09be b48a 47bd 2a7b c0bc
00000310: 214d 313d a41e 93bb 39fe 82bc 4e08 163d
00000320: 3f69 dd3d c557 b93d d3ae f13d 0f94 dd3c
00000330: e678 00bd 50d9 8e3e a7e5 62bd 59a3 2a3d
00000340: 0ccd 3bbe 752c 59bc 9237 463d f122 1e3e
00000350: 5572 6abe 1dd6 26bd f74f a03e 99a7 ef3c
00000360: dd88 eebd af91 95bd 2a2d 943d af58 80be
00000370: d43e 55ba 49f4 37be b2a2 72bd 9deb f0bc
00000380: 814c e83b 37b1 003e 47c7 903d aae9 49be
00000390: 8373 453d d46b a9be b759 143e 6a10 bbbe
000003a0: 5872 8dbe ada9 a1bd 7408 07bf d285 763d
000003b0: 0f1a debb 4a21 efbd 151e f03b 8ec2 d93c
000003c0: 50e2 cd3d 269b 1b3e 3f38 823d 184e a53d
000003d0: 057c bbbb 2499 953d aa6c 6dbe 9476 e23c
000003e0: bc46 67be 6c70 26be 80f8 873e aba9 823c
000003f0: 7dab 0fbc eaea c0bd 015a 7e3d 80c6 b5be
0.730153 0.28574938 -0.051353045 0.006817394 -0.0583968 -0.07651154 -0.1277723 -0.14589855
0.1234721 0.42091918 -0.14486167 -0.16687343 -0.29249534 0.07312089 -0.04613814 0.005455165
0.0016544231 -0.22453712 -0.026214711 -0.075674675 0.17037228 -0.010837711 0.67289674 -0.22760727
-0.117868304 0.08266823 0.05175083 -0.13034858 -0.35561404 -0.81250316 0.5510865 0.12116201
-0.14615709 0.17374228 -0.19869445 0.0038050225 -0.4367175 -0.14214078 -0.049330052 0.0020477648
-0.2841339 -0.024006188 -0.072363496 -0.021560391 -0.13098013 -0.038926102 -0.2130327 0.11137723
0.007244268 -0.056680635 -0.17069787 0.69504106 0.13929366 0.46599942 -0.29433498 -0.20606612
-0.0472017 -0.07881767 -0.038330436 -0.108177416 -0.48060873 -0.014738981 -0.42586312 0.019316033
0.4944694 0.33654195 0.04068491 0.05186086 -0.01454511 -0.024716357 -0.260639 -0.008936311
-0.027030542 -0.02860326 -0.0023618673 -0.057731472 -0.0456608 -0.37596738 -0.037727483 0.21606384
0.18685217 0.08724923 -0.06506907 -0.029249385 0.11376387 0.06122997 -0.30073863 -0.08030829
0.24525629 0.15169865 0.07162562 0.06431798 -0.09276919 0.26662588 0.20888644 0.060988124
0.17268938 -0.22094959 -0.12726277 -0.25027022 -0.18290186 0.5513678 -0.35910562 -0.1987776
1.0889692 -0.0072631813 0.060010187 0.12868838 -0.0725841 -0.11049684 -0.117778406 0.0020187623
-0.13880973 -0.13394247 -0.033279855 -0.14405535 0.31163907 -0.012115674 0.5511366 0.2932885
-0.066966526 0.46969295 -0.390491 -0.0488073 0.08083239 0.28709373 -0.25263324 0.7861065
-0.3531732 -0.084791824 0.0047413064 -0.066812195 -0.06428055 0.14184035 -0.05469009 0.19009641
0.0686262 -0.11664789 0.014937543 0.035016622 0.15004583 -0.054028574 0.015697582 -0.026075311
0.102291726 -0.22335973 0.04851175 0.07973369 -0.010507814 0.0778107 -0.25680462 0.23843096
-0.04187081 0.07385378 -0.041851036 0.13206026 0.066501826 0.079921134 -0.052668083 -0.036630247
0.05545527 -0.038871985 0.21902835 0.015065273 0.076144576 -0.0072776414 -0.060039565 -0.021910528
-0.07701023 0.06423472 0.11879002 -0.06695018 0.13328385 0.12131278 -0.08212733 -0.02926466
-8.183612e-05 -0.03959846 0.21747555 -0.30038023 -0.012074925 -0.09349929 -0.025243608 0.036548205
0.016272567 -0.11248315 0.22257252 0.046327543 0.23707773 -0.00576903 -0.19687416 0.06362692
-0.25411847 -0.13411744 -0.048716262 -0.02349623 0.043286446 -0.0044897366 -0.015990363 0.036629014
0.1081109 0.09049944 0.11800923 0.027048139 -0.031365298 0.2790017 -0.055394795 0.041659687
-0.18339938 -0.013255228 0.04839284 0.15443017 -0.22895177 -0.040731538 0.31311008 0.029254721
-0.11647198 -0.073031776 0.07235177 -0.2506766 -0.00081346673 -0.17964281 -0.05923719 -0.029409224
0.007089198 0.12567602 0.07069259 -0.19718042 0.048205864 -0.3309008 0.14487348 -0.3653596
-0.276263 -0.07893691 -0.52747273 0.060186215 -0.006778009 -0.11676271 0.007327805 0.026582029
0.10052931 0.15195903 0.06358384 0.08071536 -0.0057215714 0.073046 -0.23185983 0.027644433
-0.22585577 -0.16253823 0.26556778 0.015950045 -0.008768913 -0.09419806 0.062097553 -0.35503006

bias f4 [128]
00000000: 32a7 893d 0b37 71bc 0858 4abe 0b12 a33d
00000010: 53bd a1ba f06d 3e3c 9ee0 86bd 554b 903d
00000020: c760 42be 888e 12be 66be 24be de11 723d
00000030: bc71 0dbe e70c a23d 770d 3dbd cd93 f5bd
00000040: 992c 533e 4944 b83d 5c94 2b3e 0b56 7e3a
00000050: 4ea5 293a 8539 9c3d d7db 84bc d3b9 653d
00000060: c8f0 9fbc dadc 3c3e cef9 6fbd 49e3 16bc
00000070: bbc1 d63c e8b8 213c 2e2a 4f3e bbf5 e53c
00000080: d141 a8bd 7576 a23d a783 403e 37cc 2f3e
00000090: 24e4 c7bd 3d6c 483e 8716 993c 5408 303e
000000a0: a84d 653e de5e 793d 343a c83c 5f1f a2bd
000000b0: dc3d be3d c008 fe3d 7664 533e 828b 40be
000000c0: e20c f33d 5986 143d bccc a53d c7c8 323e
000000d0: 7fa6 043e 68a8 523d ae38 333e cfc2 bc3c
000000e0: dae7 28bd 9d9d 22be 50fd d13c c956 8b3d
000000f0: 71ef 133d cffb 8d3d bd72 8abd 1dbc cd3d
00000100: 8ca0 813d cd24 e83c fc85 953d 7a9c 543e
00000110: 77df d73d c87e 163e 1bd0 863d ec3f 8f3d
00000120: 1a24 dc3d 8215 233e 48e8 3cbe 138d f6bd
00000130: ca7f 95bc d900 edbb 9315 2a3e cbe0 5a3d
00000140: 93d3 603e 57ec f03d 0272 5f3e 4330 1f3e
00000150: 5830 393e d6e7 34be fd81 a43d e2e5 8c3c
00000160: 1be9 4c3e 52c1 5dbd d724 383e 228e 133d
00000170: 18a1 263e 3824 39be a7a2 353d 004f 5a3e
00000180: 381f 693d b5e6 ed3d 5c7c cd3d ba25 52be
00000190: c1b2 b43d 837f 243e d8ce d53d faea 783e
000001a0: f4eb 913d 5293 bdbd 7607 963e 0652 a43d
000001b0: d6ee a03c f016 1d3d 2983 6fbd 69a6 69bd
000001c0: 539d 833e 394f a43d 984c 503e 7305 57bd
000001d0: 9538 97bc 0c2b 09be c979 3e3e 511f 1cbc
000001e0: abaa 193e 4e0e 4cbc 6e70 bc3d b523 0e3e
000001f0: 3d4e abbc 59e6 3c3e 4b02 333d 9dd1 18bc
0.06721343 -0.014722596 -0.19760144 0.07962426 -0.0012339748 0.011622891 -0.06585811 0.070456184
-0.1898223 -0.14312184 -0.16088256 0.05909907 -0.13812917 0.07912617 -0.04615542 -0.119910814
0.20622481 0.08997399 0.16755813 0.00097021525 0.00064714707 0.076281585 -0.016218109 0.05608542
-0.019523993 0.18443623 -0.05858784 -0.009209462 0.026215425 0.009870745 0.20230934 0.028071275
-0.082156785 0.0793275 0.18800221 0.17167746 -0.09760311 0.1957254 0.0186875 0.17190677
0.22392905 0.060881488 0.024441816 -0.0791614 0.092891425 0.12404013 0.20643792 -0.18803218
0.118676916 0.036260936 0.080956906 0.17459403 0.12954138 0.051430136 0.1750209 0.02304211
-0.041236736 -0.15880437 0.025633484 0.06803662 0.03611702 0.06932794 -0.06760166 0.100456454
0.0632945 0.02833786 0.07300946 0.20762816 0.105406694 0.146968 0.06582662 0.06994614
0.10749073 0.15926173 -0.18447983 -0.120386265 -0.018249411 -0.007232767 0.16609792 0.053437036
0.21955709 0.11763828 0.21820834 0.15545754 0.18084848 -0.17666563 0.08032606 0.01719946
0.20010798 -0.054139443 0.17982803 0.03602422 0.1627239 -0.18080223 0.04434457 0.21319199
0.05691454 0.116162695 0.10033485 -0.20522204 0.08823157 0.16064267 0.10439843 0.24308386
0.071250826 -0.09256615 0.29302567 0.08023457 0.019645136 0.038351953 -0.058474693 -0.057043467
0.25705966 0.08022923 0.20341718 -0.05249543 -0.018459598 -0.13395327 0.18601145 -0.009528951
0.15006511 -0.012454582 0.09201132 0.13880809 -0.02091133 0.18447246 0.04370336 -0.009327319

weight f4 [128, 128]
00000000: 9b54 87be 7d54 c63c edfd 0b3e 30bc dd3d
00000010: 579e d53d 7cd2 90bd 4d2f a0bd 9e95 10be
00000020: af7b 2d3c 909d 5ebd caf5 dc3d 7b82 943c
00000030: 0b6c efbd 6993 21be 1555 c5bd 0b2c 35be
00000040: 7dee 17be 8b9b 5bbc 90ac 333e b9ac 1cbe
00000050: 8190 013e 7894 b23a 12ab 2ebd 0cc2 83bd
00000060: 704b 283c c86a bdbd e3ac e63c d955 283d
00000070: 69d7 6b3e c66a 4b3e 7a7e 96bc c1c2 853d
00000080: 9f7c 8e3d f2e5 153d 95a8 463e 8b7d bdbc
00000090: f87d 09be 049d 083e 077f a73b bedd 6bbd
000000a0: 4999 aebd fc6b ae3d b73c b73e d64a 80bd
000000b0: f89c 0bbe 66f0 cdbd b501 d7bd fbf6 60bd
000000c0: 0e8c 0d3e 1e35 253e 4a02 0d3e 1b29 f63c
000000d0: 6e7e eabd 85e7 2ebe 3c5d fcbd b747 8ebd
000000e0: 1cbc abba 1269 be3c bc9f 123e 9b12 e53c
000000f0: 14f6 e53d e587 18be 0fba c43d 0b7b 2a3d
00000100: 8065 6b3e 884a 4b3d bd04 033e 1f30 c4bd
00000110: c1ca 26bd 65c7 9ebc 0f36 dcbd 47a5 86be
00000120: 2175 a93d fd83 9fbe 3dc5 c43a 3c13 a73b
00000130: 47f5 163b bdf3 c7bc 038d 6fbd 0be1 ca3d
00000140: 4819 fbbd 6193 acbd 1865 663d f7d1 393e
00000150: 123d 04bd 1458 d2bd 30f8 083d 00fb af3c
00000160: eb39 f13d 490b ba3d d11b 98bd a903 a3bd
00000170: f2fa 69be dc87 0fbc f26f cbbd dc86 b4bd
00000180: faef a8bd e257 10be e247 333d 715f d8bd
00000190: 4050 0f3e 9ea6 1d3d 7a8b 23bd 36df a7be
000001a0: 2fed 523e 5b94 c53c f06f 62be 4b4c 7e3d
000001b0: 5390 103d 14cc a33d f0c2 d8bb 1cb2 58bd
000001c0: a75d f1bd f680 e3bd 19a6 37be 5f68 be3b
000001d0: 56a4 f0bc 14a9 fbbd 3b57 2f3d 754b 393d
000001e0: ba4a c5bd e1b0 b9bd 171a 983e a04f b23d
000001f0: 9bc8 3fbd a79e 23be 3ea4 053e bf76 4eba
00000200: 9c4b ce3c 2075 24bd 4961 ba3d 7eab f53c
00000210: 5147 2fbc 0ef9 cabd 903c 25bd 40dc 773c
00000220: 379e c5bc 1e09 823d 1b0c 913c 27d1 5a3d
00000230: 1a70 e33c 7af9 143d 755f 0f3e 1ac9 c23c
00000240: 52d7 a13d 9326 af3d 7c23 4d3e 9ded 35be
00000250: 0775 c8bc b1f5 e63d 73a9 95bd 346d 35be
00000260: a0bf 12bd 57da 2dbd f361 77bc a55b 14be
00000270: 0543 6a3e e23d ce3d 9ee9 363d d882 bf3c
00000280: d42f 933d 185e 9f3c 8ee3 823e 0615 ea3d
00000290: d260 2d3d 6f48 3a3e 53fc 3d3a acb0 863d
000002a0: 5646 f03a 2377 7fbd 7d71 663e 7aab 933d
000002b0: 27e4 c4bd a63e 533d 3b30 b53d 9197 403d
000002c0: 145f 303e 54be d73c d25a 0abe 1116 9abc
000002d0: 8450 543d bcf3 c8bc c464 86bd 9935 b1bd
000002e0: 4dfb d5bd 8f3b 9e3c a581 133b f11e 2d3e
000002f0: 284c 513b 6929 9bbd 2528 c23e f075 c1bd
00000300: 6b42 be3e 7103 023d 2301 453e 8441 013d
00000310: 4f78 5f3d a26b 513e 90ad 383e 1101 e4bd
00000320: 3489 e73c bc86 27bd 5c5f 823d 1738 e7bd
00000330: d0f7 c73c f200 92bc 2ff8 113e 5949 c43c
00000340: 2c12 443d d7df 0abd bab9 283e 2a9f 5a3e
00000350: 178e 8d3d 9fd4 9a3c 8362 fb3d 8e24 42bd
00000360: d3df 253e b546 963d ea48 233d bea0 0bbd
00000370: 731e 03bd 9517 f7bc be39 12be 4576 1cbd
00000380: 5916 d5bd 8f58 51bc 25a0 0e3d eeba d13c
00000390: bf98 133c d773 233e b11d 93bc 7bda 193d
000003a0: 599c 3f3e 72d8 eb3d 983d 8c3c dc17 b2bd
000003b0: 9a22 e2bc 5732 3ebd ed56 633d c07f 23bd
000003c0: 97c4 f0bc 9697 143d a931 973b 7724 4a3c
000003d0: 47f2 e63c b38f 3b3d 5f32 703e 8003 ba3c
000003e0: 3364 5c3d 5d6e e33c 948f 663e 7a0d 423e
000003f0: 2821 6ebc 50e0 7fbc 6052 afbd 2c02 733d
-0.26431736 0.024210209 0.13671084 0.108269095 0.104305916 -0.07071397 -0.07821522 -0.14119574
0.0105885705 -0.054349482 0.10789068 0.018128624 -0.116905294 -0.15778889 -0.09635369 -0.17692582
-0.1483707 -0.013403784 0.17546296 -0.15300263 0.1265278 0.0013624569 -0.042643614 -0.06433496
0.010271892 -0.092488825 0.02815861 0.041097496 0.23031391 0.1986495 -0.018370856 0.06531287
0.06957363 0.036596246 0.19400246 -0.023131153 -0.1342696 0.13341147 0.0051115784 -0.057584517
-0.085253306 0.0851669 0.3578851 -0.06264274 -0.13634098 -0.10055618 -0.104983725 -0.05492304
0.13822958 0.16133544 0.13770404 0.030048897 -0.11449896 -0.17080505 -0.123224705 -0.06947272
-0.0013102326 0.02324346 0.14318746 0.027962973 0.11228576 -0.1489559 0.096058 0.04162125
0.22987938 0.049631625 0.12794776 -0.09579491 -0.040720705 -0.019382188 -0.10752498 -0.26297972
0.08274294 -0.31155387 0.0015012395 0.0050987285 0.002303438 -0.024408216 -0.05848409 0.09906205
-0.122606814 -0.08426548 0.056248754 0.18146501 -0.032284804 -0.10270706 0.033439815 0.02148199
0.11778625 0.09084184 -0.074271806 -0.079596825 -0.22849634 -0.008760419 -0.09933461 -0.08814785
-0.08248897 -0.14096025 0.043769725 -0.10565079 0.13995457 0.038488977 -0.039927937 -0.32787484
0.20598291 0.024118593 -0.22113013 0.062084477 0.03529389 0.07997909 -0.0066150352 -0.052904233
-0.11785441 -0.11108582 -0.17934455 0.005810782 -0.029375236 -0.122881085 0.0428078 0.045237977
-0.096333936 -0.0906694 0.29707405 0.087065935 -0.04682217 -0.1597849 0.13050935 -0.0007875971
0.025182538 -0.04015076 0.09100587 0.029989 -0.0106981555 -0.09910785 -0.04034096 0.015128195
-0.024123294 0.06349395 0.017705968 0.05342212 0.027763415 0.036370732 0.14001258 0.023777533
0.07902397 0.08552279 0.20033067 -0.17766424 -0.024469865 0.11277331 -0.073077105 -0.17717439
-0.03582728 -0.042444553 -0.0150990365 -0.14488085 0.22877128 0.10070397 0.04465639 0.02337782
0.07186857 0.019454047 0.25564235 0.11429791 0.042328663 0.18191694 0.0007247377 0.06576666
0.0018331509 -0.062369477 0.2250423 0.07210441 -0.09613829 0.051573418 0.0884709 0.047019545
0.1722377 0.026335873 -0.13511208 -0.01880935 0.0518346 -0.024530284 -0.06562188 -0.08652801
-0.104483224 0.01931551 0.0022507694 0.16906334 0.0031936262 -0.07576258 0.37921253 -0.09446323
0.37160048 0.031741563 0.19238715 0.03155662 0.054558095 0.20451215 0.18034959 -0.11133016
0.028263666 -0.040899977 0.063658446 -0.11289995 0.024410158 -0.017822716 0.14254831 0.023960756
0.047868893 -0.033904877 0.16477099 0.21349779 0.06911867 0.018900214 0.12274649 -0.047398143
0.16198663 0.07337705 0.03986446 -0.034088843 -0.03201146 -0.030162612 -0.1427984 -0.038198728
-0.10404653 -0.012777462 0.034820694 0.02560183 0.0090085855 0.15962158 -0.017958494 0.037561875
0.18711986 0.11515893 0.017119214 -0.08695957 -0.02760439 -0.046434727 0.05550282 -0.039916754
-0.029390616 0.036277376 0.0046140742 0.012337795 0.028191699 0.04579134 0.23456715 0.022706747
0.053806495 0.027762586 0.22515708 0.18950453 -0.014534272 -0.015617445 -0.08560634 0.059328243

bias f4 [128]
00000000: 8644 e73d faea 1b3d 5631 343d 5c24 57be
00000010: b4f1 69be 46bd ab3e cdb8 c93e 4604 d63d
00000020: a2ec a2be 7b72 41be b428 1ebb c385 4a3e
00000030: 023c 54be f71b 07be cfeb c3be 820e 623e
00000040: 9e84 243e 94ff 843e ddde 323e 2734 4ebe
00000050: a821 cebd ad63 453e c290 b5bd d46f 39be
00000060: 3ae9 b7be 92af 28be b697 5abe cf11 673e
00000070: 3287 723e a052 903e 1342 903e 4a0c 873e
00000080: 6038 79be 3480 a53e 1a6f edbd 987b 98be
00000090: f079 afbe ba2b babe 8668 a0be 34ea 83be
000000a0: ed94 d93d 4b0c adbe 348c 0c3d a835 633e
000000b0: c928 753d 8b07 963e d5ae 34be 6af6 793e
000000c0: 3dc6 7c3e 752f f8bd f2a8 753e df8b 05be
000000d0: 0b8b 0cbe 8ede bd3c bf64 b33e 26bd 8c3e
000000e0: eae6 3abd bacd 2cbe 22e5 74be 1ca0 063e
000000f0: 13d9 19be f16b 943e 8585 9abe 42a6 9c3e
00000100: e0c4 11be 9ce0 78be d4d5 4fbe 03cc a23e
00000110: 5e87 88be 8ecd 653d 4c91 9dbe 94a9 7f3e
00000120: 1d04 96be d33f a0be 9ff9 b0be 1086 ac3d
00000130: 4cf6 64be 1873 1d3e aaf5 29be 9400 2d3c
00000140: 5be9 02be bfd1 6fbe be3f 9c3e 4bf7 9cbe
00000150: 7996 d63d 156f f0bd d64f 5bbe 9c99 92be
00000160: f857 dfbe ee32 32be a590 9fbe 7412 ac3e
00000170: 53f2 0bbe 9908 003e e8ec 0f3e 38e0 27be
00000180: f957 67be 9a05 b8be e932 a7be c860 7a3e
00000190: af3c a63e 5d18 0f3d 5f58 743e 4d8a 29be
000001a0: 61b6 8f3e 4fac 713e 8979 a03e 2c1d be3e
000001b0: 312e 923e 52d5 893e 6176 a7be 9ca2 6e3e
000001c0: f4b8 ae3e 6fe5 823e 3d8e 81be 2501 873e
000001d0: c4a6 2dbe 51b6 bc3b b851 983c 3e12 cebe
000001e0: 8a7e 7b3e 7908 a83d d49b ecbd ec34 4dbe
000001f0: 69ba 35bd 18af 993d d5ee 833e e110 483e
0.11292367 0.038065888 0.043992363 -0.21009964 -0.22846109 0.33542842 0.39398804 0.10450034
-0.31821162 -0.18891327 -0.0024133148 0.19777589 -0.20726016 -0.13194261 -0.38265845 0.22075847
0.16066214 0.2597624 0.17467828 -0.20137082 -0.10065013 0.19276305 -0.08865501 -0.18109065
-0.35920125 -0.16473225 -0.21346936 0.22565387 0.23684385 0.28188038 0.2817541 0.26376563
-0.24337912 0.32324374 -0.115934566 -0.29781795 -0.34272718 -0.36361486 -0.31329745 -0.2576462
0.106241085 -0.3379844 0.034313396 0.22188437 0.05985335 0.2930263 -0.17644818 0.24410406
0.24684997 -0.12118427 0.23990229 -0.13041638 -0.13724916 0.023177411 0.350378 0.2748806
-0.045630373 -0.16875353 -0.23915532 0.13147014 -0.15024213 0.28988603 -0.30179992 0.30595595
-0.14235258 -0.24304432 -0.20296413 0.31796274 -0.26665777 0.056104235 -0.30774915 0.24967033
-0.29300013 -0.31298694 -0.34565446 0.08424008 -0.2235958 0.15375936 -0.1659762 0.01055922
-0.1278433 -0.23419856 0.3051738 -0.3065742 0.10477919 -0.11739937 -0.21417174 -0.2863282
-0.43621802 -0.1740224 -0.31165043 0.3360783 -0.13666658 0.1250328 0.14055216 -0.16394126
-0.22592153 -0.35941774 -0.3265603 0.24450982 0.32468173 0.034935344 0.23861836 -0.16556664
0.28068832 0.23600887 0.31342724 0.3713163 0.28550866 0.26920563 -0.32707503 0.23304218
0.34125483 0.2556567 -0.25303832 0.2636806 -0.16958147 0.0057590385 0.018593654 -0.40248293
0.2455999 0.08204741 -0.11553159 -0.2003972 -0.044367228 0.075040996 0.25768152 0.19537689

weight f4 [128, 128]
00000000: 85ff 143e f1e4 813d f799 dbbb 37f9 b53b
00000010: d930 ffbd 1a18 85bd 5082 e23d 144f 5dbb
00000020: 4574 dcbd fea3 633d c81c 2a3d 755a e8bc
00000030: cf60 14be 8cd2 eabd 227f b83c 44ba d23d
00000040: 43da a93d 23ee 593d 2b87 f3bd bd92 c8bd
00000050: 9677 7cbd 5823 9c3d 1bfe 5cbc 1e6c 9ebd
00000060: d9dc cb3c 30f1 12be 6904 88bd c62d 9f3d
00000070: 5666 06bd 0ee6 053e 69c7 e5bd 6bac 8a3d
00000080: ad01 29bc a5f4 b4bd 4722 43bd 0a80 aebc
00000090: 088f c5bd a96a a6bc b76e a2bb a039 60bd
000000a0: eedc 2b3c fe11 083d 6330 e3bd a8b7 cc39
000000b0: 4142 ba3c 8439 0d3e acb6 d1bd 3456 943d
000000c0: 3d1a c83c 8117 f0bd 3c9f 9ebc d6d1 8a3c
000000d0: d683 6bbc 00b2 1fbd 2498 353d 9d4f d73d
000000e0: 2d06 24bd 2c14 0fbe 3a5f 5f3d 1006 81bb
000000f0: e22e ccbc 4cda c23d 66bf 9dbd 98db 243e
00000100: c99b 7dbd c490 3a3d a226 8fbd b61b 9a3c
00000110: 7e1c a8bd 5dda 89bb 207c 9fbd 6660 d13d
00000120: 5fc5 03bc 6bab ec3a 9956 3bbd 4b5e cdbc
00000130: aac7 2abe 5342 9b3d a484 433c a785 813d
00000140: 1fc1 4abd 683e 9bbd 7015 7d3c 87fc 21be
00000150: d962 703c ea67 1e3d d032 babd a7af 85bd
00000160: 6298 fe3d 4328 a5bd ecab bf3d 2e92 133e
00000170: 8d75 bbbd 36e9 ac3d d583 9b3c 700f b0bc
00000180: 5c23 99bd ea5e 34be f52d 823d 4d88 833c
00000190: e4b4 823d 2afe 233c ab14 2e3e 49f8 fbbc
000001a0: 9445 ae3d 98c1 443d bf65 843c 9e34 40bd
000001b0: 9369 fa3c c7cd 2c3b b65e a8bd dfb4 403d
000001c0: 4b0a 283d 1659 34bb 1209 50bd 0384 393d
000001d0: 05ff 04be 831a 50bd a406 2ebd 4ab3 6bbc
000001e0: e434 c53d 3b17 333d b5c3 afbc 2375 efbc
000001f0: 3a29 f7bd b45c 853b 4544 053d 81d8 033e
00000200: c089 ac3d 9829 293e 5e24 1cbd 6ff1 debc
00000210: ed15 e1bd d571 303d 7380 3c3e d154 0fbd
00000220: 5b05 23be 8817 06bd 5e54 7fbd c8b3 023d
00000230: b015 38ba 6d8d b0bd 3796 5d3d 2ef5 2a3d
00000240: 0128 00bd 15b8 003d 0f49 46bd e621 02bd
00000250: 1dc0 01be b7cd 7c3d 58ef 9e3d 1e87 a63d
00000260: 1303 f1bd bfd5 17bd 47cb 303d 80f2 0b3e
00000270: 03c2 edbb 6648 163e f764 343c fc03 1b3d
00000280: c7ba efbd 0e93 e5bc 7e79 b9bd 8d82 8bbd
00000290: 3e3b 17be 697d 33be a255 b4bd af46 67bd
000002a0: 4b61 a73d 5506 00be 5084 78bd 42f0 81bd
000002b0: 72b4 8dbd 90a3 363d 5b41 d9bd 5704 5d3d
000002c0: c702 873d 117f bebd b1de c23c a44f d9bd
000002d0: 1cda 543b c009 24bd f2e0 6e3d ee82 793d
000002e0: 56ed 9fbd 35ad c7bd 8374 863d ed79 c3bc
000002f0: 9064 c33b 1f39 c23d 0040 2bbd eae8 283e
00000300: 0101 953c 6d23 7bbd a77c d6bd b9f2 a53d
00000310: 40d7 ecbc f73d 803d b691 93bd d21d a63d
00000320: d0e9 97bd 9cd8 60bd ab7a 31be 38aa aebb
00000330: 75bc 0fbe 938c 55bc fe66 81bd a90e 6b3d
00000340: 944a 1bbd 8a5e dbbd bd27 d83d f433 fabd
00000350: acf4 32bd 17bb 59bc ac05 3fbd 7561 2ebd
00000360: 19c2 95bd f6f1 98bd c1da bbbd d5f0 243e
00000370: 8a3f 6d3d 92d8 253b f3ca 503d 27e9 143c
00000380: 50b3 edbc aca5 aebd 0eb2 553d f79c b23d
00000390: 2a92 b5bc 3482 8bbc 27de d83d 128b 0fbc
000003a0: 4f53 a03d 89e1 173d 9972 1a3d cb19 d3bc
000003b0: 7023 cd3d 20bb fe3d 94ab 5ebd ce1c 853d
000003c0: b020 0b3e 9bc0 613c bd47 893d 4805 10bd
000003d0: 46af 6b39 7b71 ce3d fc5c af3c a17b 2b3c
000003e0: 42ed a8bd 5414 9b3d 17f2 95bd 4c2c 1cbd
000003f0: 4710 b7bd fa58 0dbd 83a7 a73d 486b cd3c
0.14550598 0.06342495 -0.0067017036 0.0055533904 -0.12460489 -0.06498738 0.110600114 -0.0033769058
-0.10764364 0.055576317 0.041531354 -0.028363446 -0.14490055 -0.1146594 0.02252156 0.102894336
0.08293583 0.05320562 -0.118910156 -0.09793613 -0.061637484 0.07623929 -0.013488318 -0.077354655
0.024885582 -0.14349818 -0.06641466 0.077724025 -0.03281244 0.1307604 -0.11219675 0.06771167
-0.010315341 -0.08835725 -0.04764011 -0.021301288 -0.09646422 -0.020314531 -0.004957046 -0.054742455
0.010489685 0.033220284 -0.110932134 0.00039046747 0.02273667 0.13791472 -0.1023992 0.072430044
0.024426574 -0.11723233 -0.019363038 0.01694576 -0.014374694 -0.038988113 0.044334546 0.10513232
-0.040044952 -0.13972539 0.054534175 -0.0039374903 -0.0249247 0.09514293 -0.07702522 0.16099393
-0.061916146 0.045548216 -0.069897905 0.018812042 -0.082085595 -0.004206939 -0.07787347 0.10223465
-0.008042662 0.0018056458 -0.045736883 -0.025069376 -0.16677728 0.0758101 0.011933479 0.0632432
-0.04950058 -0.075802624 0.015447006 -0.15818988 0.014672005 0.03867332 -0.09091723 -0.06527644
0.124314085 -0.0806432 0.09358963 0.14411232 -0.091532804 0.08442919 0.01898376 -0.021491736
-0.074774474 -0.17614332 0.06356422 0.016056204 0.063821584 0.010009328 0.17000072 -0.03075804
0.08509365 0.048036188 0.016161798 -0.04692518 0.03056792 0.002636777 -0.0822119 0.047047492
0.04102544 -0.002751892 -0.0507899 0.04529191 -0.12987907 -0.050806534 -0.0424868 -0.014386008
0.09629229 0.043723326 -0.021455625 -0.02923066 -0.1206841 0.004069889 0.03253581 0.12875558
0.08424711 0.16519773 -0.03812062 -0.027214734 -0.1099051 0.04307731 0.18408374 -0.034992997
-0.15920012 -0.032737285 -0.06233632 0.031909734 -0.00070222747 -0.08620725 0.054098334 0.041737728
-0.03128815 0.031425554 -0.048409518 -0.03177061 -0.12670942 0.061719622 0.07760495 0.0813124
-0.117681645 -0.03706908 0.04316261 0.13666725 -0.007255794 0.14676055 0.0110104 0.037845597
-0.11705547 -0.028024223 -0.09056376 -0.0681201 -0.14768693 -0.17528309 -0.08805396 -0.056463894
0.08172854 -0.12502415 -0.060673058 -0.06344654 -0.06919183 0.04458958 -0.10608169 0.053959217
0.065923266 -0.0930158 0.023787828 -0.10610893 0.0032478636 -0.04004836 0.058319993 0.06091588
-0.0780894 -0.097498335 0.065651916 -0.02386185 0.0059629157 0.09483551 -0.041809082 0.164951
0.018188955 -0.06131308 -0.10472994 0.08102936 -0.028911233 0.06261819 -0.072055265 0.081111565
-0.07417643 -0.054894075 -0.1733195 -0.0053303503 -0.14036734 -0.013034004 -0.06318472 0.057387028
-0.03791292 -0.10711391 0.105544545 -0.122169405 -0.04369037 -0.013289235 -0.04663627 -0.04257341
-0.07312412 -0.074680254 -0.09172583 0.16107495 0.057921924 0.0025306088 0.050974797 0.009088791
-0.029016167 -0.08527693 0.05217176 0.08721345 -0.022164423 -0.01702986 0.10589247 -0.008761184
0.0782839 0.03708032 0.037706945 -0.025769135 0.10016525 0.12438035 -0.05436285 0.06499635
0.13586688 0.013778831 0.06703136 -0.035161287 0.00022476641 0.100802384 0.021406643 0.010466487
-0.08248378 0.07572237 -0.073215656 -0.038128182 -0.089386515 -0.034508683 0.08186247 0.02507557

bias f4 [128]
00000000: ad08 b7bd 3675 be3e ac3c b63e dc15 00bf
00000010: 7a92 8abd 18e2 a0be 2995 cdbe 21ca d4be
00000020: 7973 61bc f21a 653d 75f5 7a3d d35b a6be
00000030: b279 c8be a7dc a03e 4825 323f fd51 65be
00000040: 41f9 b43d 98dc dcbe 6ce3 bbbd 3e61 283f
00000050: 9f10 bd3d 6b4f 7fbd 0f4b 813d 806a 17bf
00000060: 4ff0 743d 9a4b 7b3e 8aa4 a43e 69f2 9d3e
00000070: 6a7b fbbd 909c b0be 9454 843e e735 9bbe
00000080: 6d12 16bf eb31 afbd d963 8d3e 8e1e a9be
00000090: 257d 9cbe d39b 863d 639e ac3e fd6b c7be
000000a0: f26d b9be 3aef 5e3d 19bd 773e 1f22 4c3d
000000b0: 2722 cdbe b43d 7b3e 6800 3a3d 4f37 8f3e
000000c0: 0b20 11bf 9ee7 57be c374 c3be 4ba1 c13e
000000d0: 9b95 07bf 4afd 4d3e 2cb0 913e a8c7 a2bd
000000e0: d4a7 e2be 8b57 553d 3133 253e 3361 be3d
000000f0: ffc2 053e f198 50be 085b 8dbe 2efc a9bd
00000100: 11ea 74be c5ba 45bd 29ba 8e3e 9524 8f3c
00000110: 0ac3 04bf b3ee c4be 9d02 033f 0b82 283e
00000120: b413 edbe f18b 5bbe e3d3 9e3e be39 113f
00000130: 22a2 ba3b 8fd2 59be 0355 0c3e bd18 dbbe
00000140: 57a0 803c 08b2 7f3b 9bc2 7b3e 4762 a13e
00000150: 5eaf 90bd f043 06bf 8ad3 2abf 03a8 453e
00000160: 7ada 853e cec1 80bd dd20 eb3d 6977 8a3e
00000170: 718e f0be 8906 8b3e 29c7 653e a8d7 1bbf
00000180: 8268 89be 7e18 93bd a644 bdbd 447a 273f
00000190: becb 553b fd6b b53e d305 683e 7c33 d5be
000001a0: dc68 4a3e d666 453e 03ef 873d f98f ba3d
000001b0: 84bf 3c3e fff4 753e 40f5 24bb c2db 143f
000001c0: 50f8 493e af72 0bbf 390b b43e 31de 21bf
000001d0: 7f24 9c3e d0a0 183e 6389 af3b 5e6c bfbe
000001e0: 0d2a e5be d9f2 51be b1fc 78bd cf96 0b3e
000001f0: 862f 823d d6e5 01bf 6550 763d b313 b13e
-0.08937202 0.371988 0.35593164 -0.50033355 -0.067662194 -0.31422496 -0.40152863 -0.41560462
-0.013760441 0.0559339 0.061269242 -0.3249193 -0.39155346 0.31418344 0.69588137 -0.22394557
0.08836604 -0.4313705 -0.09174237 0.6577338 0.09231686 -0.0623316 0.063131444 -0.5914688
0.05979949 0.24540558 0.32156783 0.30849007 -0.12279399 -0.34494448 0.25845778 -0.30314562
-0.58621866 -0.08554443 0.2761524 -0.33031124 -0.30564228 0.0657269 0.3371459 -0.38949576
-0.36216694 0.054427363 0.24193229 0.049837228 -0.4006512 0.24535257 0.045410544 0.27971885
-0.5668952 -0.21084449 -0.3817502 0.3781837 -0.52962655 0.20116153 0.2845472 -0.07948238
-0.44268668 0.05208544 0.16132809 0.09295883 0.13062666 -0.20370843 -0.27608514 -0.083000526
-0.23917414 -0.04827382 0.27876404 0.017473498 -0.51860106 -0.38463363 0.5117586 0.16455857
-0.46304095 -0.21440102 0.31021032 0.5672873 0.0056955973 -0.21271728 0.13704304 -0.4279231
0.015701456 0.0039016027 0.24585955 0.31520292 -0.07064699 -0.52447414 -0.66729033 0.19302373
0.26143247 -0.06286965 0.114808775 0.27044228 -0.46983674 0.27153423 0.22439255 -0.6087594
-0.26837546 -0.07182406 -0.09241609 0.6542094 0.003262266 0.3543395 0.22658472 -0.41640842
0.19766563 0.1927751 0.06637385 0.09109492 0.18432432 0.2401924 -0.0025170594 0.58147824
0.1972363 -0.5447187 0.35164812 -0.6322966 0.30496594 0.14905095 0.005356954 -0.37387365
-0.44758645 -0.20502795 -0.06078786 0.13631748 0.063567206 -0.50741327 0.060135264 0.34585342

weight f4 [128, 128]
00000000: e2e7 683d a7fd 833d 90c2 223e 584d 723d
00000010: 3bdf ed3d d7ea 219c d5a7 0280 2d53 0400
00000020: 3aa4 bb31 3ea8 3bbd 85b6 183e 363b 9f9c
00000030: 519e b40b b6bf 0c3e 9572 243d 8cb4 053f
00000040: 789b df3d 37b3 cd0c 6621 ecaf 45e6 98be
00000050: 579a 053d 30c4 cc3d a5f6 d8be f663 0880
00000060: d695 6f3c 1b28 c83d 06d5 993d 0163 e23d
00000070: a8e1 463c 525f 0580 ef37 173e 1068 db20
00000080: 2a30 0200 b027 86ae 497d aa3d d159 0600
00000090: a1b7 d60b 9d12 dc3d 8248 3b3e 95c9 0200
000000a0: c8bb 3d8a 17d1 5939 683b 713e 5e49 ea3d
000000b0: 0345 0100 b655 173e 02b5 f83b 8922 3e3d
000000c0: fa7d 0100 3fac 571c bb12 770c 83f3 2e3e
000000d0: 3ec9 0883 cf91 7ebc 752d fd3d 1442 bdbc
000000e0: e027 0500 b3a6 ae3d d37b f23d 9cb6 f63d
000000f0: 7202 933d f8fd 543d fadf 9125 3a7d 0fbd
00000100: 97e1 fc20 ba2b 19bc 502f 4b3e 86ed a73d
00000110: 4607 0200 a76f 0200 d998 e0bc 119e 723c
00000120: 4194 270a e104 a83d 3aed c13d a2d4 43bd
00000130: 5e3a 8a3c 4631 80a0 8c86 5c3e 3d68 0400
00000140: a7f4 c0bd bbcf 99bb ffbb d03d 07ea 213e
00000150: a6c9 6ab6 ca7e 0200 78fb 0300 35b6 563e
00000160: 0a94 713d 3cbd 4ab1 d081 fc3d 310f d73d
00000170: 0462 0400 6fb0 0a3d f3f3 5b3d 64cd 0100
00000180: 3ae8 e78e c934 efbd dc3c 831e 47c0 babe
00000190: fc56 62bc 85de 123e 5279 1f3e 2fc5 0200
000001a0: 6581 e83d 38de af3d 89ad 843d d94b 533c
000001b0: 1a5b 433d 753f 6b3e b971 003e 1a55 b4be
000001c0: 35cc 943c 41dc 0200 e06d 80bf 7d43 0300
000001d0: 8c95 4cbf d9e5 313e 4fc5 b53b 4d4a 0700
000001e0: 299d 0200 1e72 e425 6cc6 aa3c 14e2 043e
000001f0: 6a26 e83d 3d4b 0200 c40f 1abf 12cf 1f3e
00000200: 7de6 c83d 80a2 8e3d 67bd 4d3e 9984 2b3e
00000210: b8c1 033e 5ce2 0200 606f 0400 a5c9 0400
00000220: b058 b81f d228 1d3d 4e9a e43d 866e 1901
00000230: c1a4 0b00 cfb5 913d 219a d2be 4fa7 403f
00000240: 3136 1a3e ab5a 0400 222a 2622 5cc0 45bf
00000250: 7151 393e e4e5 c73d e19c 24bd 11ff 0500
00000260: a167 073e 5e36 bb3b 17c8 0a3e b39c 4c3e
00000270: 7020 26ad 047f 0880 a657 1c3e 0c07 0600
00000280: 3417 0200 86e2 e51e 4fd9 9b3d 1621 0300
00000290: 2b64 0300 31fc 703e 53e8 083d fa01 0300
000002a0: 0309 0500 c7ae 143e d5b9 e83d 254d 043e
000002b0: cbf6 0100 47f8 0e3e 6e59 833d 1f02 7e3d
000002c0: 2cc9 0200 3694 0c80 ea2a 0200 7a38 b63d
000002d0: b982 0200 e129 493c c4d8 453e f189 262c
000002e0: b2cf 0200 f417 3cbc 9f9a 5c3e 55be 193e
000002f0: 3d3c cd3d 12e9 283c d646 2f99 144b a7b7
00000300: f60a ee12 9631 123e ffe0 d83d 4750 5a3d
00000310: 77ef 0100 6003 0500 408d 02bf 059c fe3d
00000320: d7cf 0100 f71e b53c 9896 c73d c694 cdbe
00000330: 3b43 a9bc 313f 0380 4cd7 263e 6eb4 0500
00000340: 40d5 112f 56d2 4c3d e2c7 593d 71ac 0a3e
00000350: 31ce 9024 6ce5 0100 cdf1 0300 7bf3 123e
00000360: 4387 053e de18 3023 4f40 183e 345f 153e
00000370: 9730 0400 0948 a13d 83ff 223e 5e94 0400
00000380: 5040 6c88 a41b 90be a61f a515 e97a 4dbf
00000390: 5dda c63d a010 ac3d c480 4f3e 46c8 0400
000003a0: 831f 333e 543f b73d b261 b53d 1236 903d
000003b0: d970 1a3e 5f57 393e 192e 4d3d 72ee 59bf
000003c0: 5009 353d 0e43 0300 41ed d3bf 5deb 0400
000003d0: 41f6 7ebf 7f51 563e 33ea fe1d fad4 0100
000003e0: 7c91 0300 7650 e817 977e eb3c 2738 663e
000003f0: 545a ad3d daa7 0300 2b20 63bf 39fd ee3d
0.056861766 0.06444865 0.15894532 0.059155792 0.116148435 -5.3573955e-22 -2.43878e-40 3.9718e-40
5.4610867e-09 -0.045814745 0.14913376 -1.0537043e-21 6.9571686e-32 0.13745007 0.040148336 0.5222862
0.10918325 3.1693112e-31 -4.295188e-10 -0.29863182 0.032617893 0.09998357 -0.42375675 -7.70543e-40
0.014623126 0.097732745 0.07511334 0.1105404 0.012138762 -4.93372e-40 0.1476743 3.7168906e-19
2.00949e-40 -6.1006644e-11 0.083246775 5.83233e-40 8.2706096e-32 0.10745738 0.18289378 2.55985e-40
-9.135337e-33 0.00020772625 0.23557818 0.11439775 1.16592e-40 0.1477879 0.007589937 0.046419654
1.37027e-40 7.1360156e-22 1.9033824e-31 0.1708508 -4.0197823e-37 -0.015537693 0.12362186 -0.023102798
4.73482e-40 0.08527889 0.11840024 0.12046549 0.07178201 0.052000016 2.5305263e-16 -0.035031535
4.2839743e-19 -0.009348804 0.19842267 0.08199601 1.8628e-40 2.23724e-40 -0.027416633 0.014808194
8.068641e-33 0.082040556 0.094690755 -0.047810204 0.016873535 -2.171665e-19 0.215357 4.04736e-40
-0.09421664 -0.004693953 0.101921074 0.1581193 -3.4986092e-06 2.29154e-40 3.65716e-40 0.20967944
0.05897907 -2.9502436e-09 0.12329447 0.105009444 4.02503e-40 0.033859666 0.053699445 1.65516e-40
-5.7169523e-30 -0.1167999 1.3895335e-20 -0.3647482 -0.013814684 0.14342697 0.15573624 2.54407e-40
0.11352805 0.08587307 0.06478412 0.012896501 0.047694303 0.22973426 0.12543382 -0.35221177
0.01816378 2.62683e-40 -1.0033531 2.99717e-40 -0.7991569 0.17372836 0.0055472027 6.69503e-40
2.4005e-40 3.9629024e-16 0.020846568 0.12976867 0.11335452 2.10661e-40 -0.60180306 0.15606335
0.09809587 0.06964588 0.20091783 0.167498 0.12866867 2.64873e-40 4.07296e-40 4.39678e-40
7.807375e-20 0.038369007 0.11162244 2.8180959e-38 1.069293e-39 0.07114755 -0.41133216 0.7525529
0.15059735 3.99868e-40 2.25195e-18 -0.7724664 0.18097474 0.09760645 -0.040188674 5.50678e-40
0.13223125 0.005713268 0.1355289 0.19981651 -9.44321e-12 -7.80249e-40 0.1526781 5.53541e-40
1.91995e-40 2.4340006e-20 0.07609808 2.87375e-40 3.1144e-40 0.23533703 0.033424687 2.76216e-40
4.6241e-40 0.14519797 0.1136357 0.12920053 1.80368e-40 0.13961898 0.06413542 0.06201374
2.55838e-40 -1.155194e-39 1.99066e-40 0.08897491 2.30565e-40 0.012278051 0.19320971 2.3666592e-12
2.58178e-40 -0.01148032 0.21543358 0.15014012 0.10021255 0.010309475 -9.061593e-24 -1.9942912e-05
1.5022614e-27 0.14276728 0.105897896 0.053299215 1.77739e-40 4.60388e-40 -0.5099678 0.12432102
1.66394e-40 0.022109492 0.0974552 -0.40152568 -0.02066194 -2.98175e-40 0.16293067 5.23903e-40
1.3263435e-10 0.05000528 0.05316914 0.13542344 6.279935e-17 1.74137e-40 3.62248e-40 0.14350693
0.1303988 9.546245e-18 0.14868282 0.14587098 3.84773e-40 0.07875068 0.15917782 4.20566e-40
-7.1094266e-34 -0.28146088 6.66929e-26 -0.8026567 0.09709618 0.084016085 0.20263964 4.39187e-40
0.1749249 0.08947626 0.088565245 0.07041563 0.1508211 0.18099736 0.05009279 -0.85129464
0.044198334 2.99561e-40 -1.6556779 4.51774e-40 -0.99594504 0.20929526 6.7475397e-21 1.68237e-40
3.27696e-40 1.501296e-24 0.028746886 0.22482358 0.08464494 3.3572e-40 -0.8872096 0.11669392

bias f4 [128]
00000000: e3ce 60be 3469 edbe f707 93b9 8300 4cbe
00000010: 1f9d 033f becf 7ebb 4eff d33e a19d 31bd
00000020: 1d43 c13e 6f7f 38b8 d805 e23d 99af 84bc
00000030: 6dc4 2fbf 7daa 95bc d63a 8b3e 2bff d9be
00000040: 744c c93e cf6e 843e 6716 853e 3ea8 19be
00000050: 419f 9b3e 23bc f83e 7664 90bd aeab c53e
00000060: a157 f6bd 666c 31bf f04b c23e ab93 033f
00000070: 6efb f53e 6d79 a63d ab3e e43e 9068 99be
00000080: a0e8 f7b8 ff70 56bf 1069 ac3e fdcc d53e
00000090: 679c d7be 3913 c9be 6ae3 023f 607a 72ba
000000a0: a69e 063f 3159 2b3e 0ee5 57be 9b77 f83e
000000b0: 2c81 a43d e86b 34be e136 fa3e 8ba1 2dbe
000000c0: 18f1 90bd 2c64 ebbe a97b c73e 40ab 95be
000000d0: 111e 153f 10df 7fbe e426 32bd 4e24 31bf
000000e0: 4948 0e3f d187 19bd 21c4 073e 580b a3b4
000000f0: be62 4bbe 0988 61bd c7f2 d83e 093d e93e
00000100: da01 35be f3c4 c23e 67e6 a43e 8891 62bd
00000110: c192 e83e 670b 0dbf bd5f cf3e 563e f8b7
00000120: d070 e03e 14ea ed3e 1e13 d33e d2df d73e
00000130: 3071 0e3f eb89 f13e b09e f33e 168e 713e
00000140: 3b06 8eb8 9260 fd3e 1145 14bf ef44 f33e
00000150: 8642 003f 026f 58be fc2c 31bf 769f b33e
00000160: 5cb5 d83e 3f57 e43e a92c ea3e f54c 06be
00000170: 99bc d3bd eefb 11be 18b3 8d3e b725 f03e
00000180: e7eb 8eb9 6603 b4bb 9187 92be 6f2a 81bc
00000190: 8857 cd3e 795e 61be 677e 183f 05d7 1fbe
000001a0: 2cde 063f 6604 5ebd ceb9 38bf cdd0 f33e
000001b0: cacc 46be 0ece aa38 4857 023f b415 35bf
000001c0: 3fd1 82be 1885 a2bb e24e 1cbf 29c4 ea3e
000001d0: f542 a8be ab70 e2bd 9132 eb3e da7f f83e
000001e0: 00ce f0bd ecd1 a7b5 0cf8 afbe 1a21 c7b5
000001f0: 9355 fa3e 5d84 a2be 5e37 cd3e de2e 0ebc
-0.21953921 -0.46369326 -0.0002804396 -0.1992207 0.5141162 -0.0038881148 0.4140572 -0.043363217
0.37746516 -4.39877e-05 0.11036271 -0.016197013 -0.68659097 -0.018269772 0.27193326 -0.4257749
0.39316142 0.2586579 0.25993654 -0.15005586 0.3039494 0.48581037 -0.070504114 0.38607544
-0.12028433 -0.6930603 0.3794856 0.513972 0.48043388 0.08128629 0.44579062 -0.29962587
-0.000118212076 -0.8376617 0.33673906 0.41757956 -0.42111513 -0.39272478 0.51128256 -0.00092498027
0.5258583 0.16733243 -0.21083471 0.48528752 0.0803245 -0.17619288 0.48869994 -0.16956155
-0.07077235 -0.45974863 0.38961533 -0.29232216 0.58249 -0.24987435 -0.04349412 -0.6919602
0.5557905 -0.03748304 0.13258411 -3.036937e-07 -0.19861886 -0.055061374 0.42372724 0.4555438
-0.17676488 0.38040885 0.32207033 -0.05531457 0.45424464 -0.55095524 0.4050273 -2.9592931e-05
0.4383607 0.4646765 0.41225523 0.4216295 0.5564146 0.47175536 0.47582006 0.23589358
-6.772248e-05 0.4948774 -0.57917887 0.4751353 0.50101507 -0.21136096 -0.69209266 0.35082597
0.42325866 0.44597813 0.45737198 -0.13115294 -0.103387065 -0.1425626 0.276757 0.46903774
-0.00027260112 -0.005493569 -0.28619054 -0.015767304 0.40105844 -0.22008695 0.59567875 -0.15609367
0.5268276 -0.054203413 -0.72158515 0.4762024 -0.19414058 8.1446124e-05 0.5091443 -0.7073624
-0.25550267 -0.0049597137 -0.61057866 0.45852783 -0.32863584 -0.11056646 0.45937017 0.48535043
-0.117580414 -1.2503565e-06 -0.34368932 -1.4836289e-06 0.48893413 -0.3174161 0.40081304 -0.008678166
