models/autoencoder_barabasi_100k_n.pt (torch, 758247 bytes, 12 tensors)

weight f4 [256, 2]
0	0x3e961a19	0.29316786
1	0xbe3fccb1	-0.18730427
2	0x3ef66d7d	0.48130408
3	0x3e5f7f99	0.21826018
4	0xbf565448	-0.83722353
5	0xbe6015d0	-0.21883321
6	0x3eaf1c62	0.34201342
7	0x3f4e4d6d	0.8058689
8	0xbece3fbb	-0.40282997
9	0x3ed627a6	0.41827124
10	0xbebeba97	-0.37251732
11	0xbf66aeeb	-0.90110654
12	0x3ee59e24	0.44847214
13	0x3e2ef9c5	0.17087467
14	0xbf2f354a	-0.6844069
15	0xb904fddd	-0.00012683072
16	0xbf41426a	-0.75491965
17	0x3f1ec18b	0.62014073
18	0xbe415a71	-0.18882157
19	0xbf0d7609	-0.5525823
20	0xbf1987c9	-0.59972817
21	0xbd567bf9	-0.052364323
22	0xbede2f66	-0.43395537
23	0xbf78ea85	-0.9723285
24	0xbf90225a	-1.1260483
25	0xbc9d55ef	-0.019206015
26	0xbeda52d7	-0.42641327
27	0xbe3192bf	-0.17341135
28	0x3e872e1e	0.26402372
29	0x3eca715b	0.39539608
30	0xbe001343	-0.12507348
31	0x3dc1e5c6	0.09467654
32	0x3f7bf184	0.984154
33	0xbebdb404	-0.37051404
34	0x3f2ebadb	0.6825387
35	0xbecafd1c	-0.39646232
36	0xbf67d9b2	-0.9056655
37	0x3eb34587	0.35013983
38	0x3eb2de71	0.34935334
39	0xbf111941	-0.5667916
40	0xbf5c14ce	-0.85969245
41	0xbf0b3d80	-0.54390717
42	0xbe46f8e5	-0.19430883
43	0x3f426403	0.75933856
44	0x3e696870	0.22793746
45	0xbedca565	-0.43094936
46	0x3f1127f7	0.56701607
47	0xbf145700	-0.5794525
48	0xbedddc74	-0.43332255
49	0x3df72dd4	0.12069288
50	0xbeeff5da	-0.46867257
51	0xbca9da66	-0.020734023
52	0x3f344730	0.70421124
53	0xbee7541b	-0.45181355
54	0x3f251783	0.64489
55	0x3f42ab2f	0.76042455
56	0xbf586e10	-0.8454294
57	0xbec56347	-0.38552305
58	0xbd478f79	-0.04872081
59	0x3f3bdf54	0.73387647
60	0x3f15d500	0.5852814
61	0x3d806164	0.06268576
62	0xbe8ebeae	-0.27879852
63	0xbc6ab255	-0.014324744
64	0xbf501cf2	-0.8129417
65	0x3f24e5d0	0.64413166
66	0x3ec615a8	0.38688397
67	0xbf1e9873	-0.6195137
68	0xbf68b654	-0.9090321
69	0xbf13943c	-0.5764806
70	0xbe45e771	-0.19326569
71	0x3ed9182f	0.42401263
72	0xbdfe718f	-0.12424003
73	0xbf4dea72	-0.8043586
74	0xbf5db5db	-0.86605614
75	0xbeabbe4d	-0.33543625
76	0xbf0e7216	-0.5564283
77	0x3c0faaba	0.008768732
78	0xbe91c3a2	-0.28469568
79	0x3f4e89f1	0.8067923
80	0x3f2feaf2	0.68717873
81	0xbec7ed55	-0.39048257
82	0x3f6e1c0d	0.9301155
83	0xbe5d000f	-0.21582054
84	0x3eeae53a	0.4587801
85	0x3e4bc92c	0.1990096
86	0x3ec22a5d	0.37922946
87	0xbe918310	-0.28420305
88	0x3eb8ede1	0.36118987
89	0x3f36e564	0.7144377
90	0xbe022da8	-0.12712729
91	0x3c4d7194	0.012539286
92	0x3e1a76a2	0.15084317
93	0x3e04ff5c	0.12988037
94	0x3f3a225f	0.72708696
95	0xbe850f9d	-0.25988474
96	0x3d9e98da	0.07743998
97	0xbf82d3b8	-1.0220861
98	0x3f1a34dc	0.60236907
99	0xbef5c362	-0.48000628
100	0xbe57d871	-0.2107866
101	0x3efb8c35	0.49130407
102	0x3ecdebc2	0.4021893
103	0xbe634907	-0.22195826
104	0x3ec172b5	0.37782827
105	0xbf275191	-0.65358835
106	0x3f08d3a7	0.53447956
107	0xbf2668d7	-0.6500372
108	0xbe24dcbf	-0.16099833
109	0xbde24d31	-0.11049879
110	0xbf51d3b0	-0.81963634
111	0xbeb52e35	-0.35386816
112	0xbf6dbf90	-0.92870426
113	0x3e1f4a67	0.15555726
114	0x3eea444e	0.45755237
115	0xbf13459f	-0.5752811
116	0x3f3d160a	0.73861754
117	0xbf1e2129	-0.6176935
118	0xbe8ea957	-0.2786357
119	0xbd219758	-0.039450973
120	0xbf563bea	-0.8368517
121	0x3da5367f	0.08067035
122	0xbf92af2b	-1.1459707
123	0xbeaec5ff	-0.34135434
124	0xbf3980cb	-0.7246215
125	0xbe33c8f3	-0.17557125
126	0x3d1506d6	0.036383472
127	0x3f0347c5	0.51281387
128	0x3f0e40e3	0.5556776
129	0xbf06ec94	-0.5270474
130	0xbf820aa5	-1.0159498
131	0x3eb321c9	0.34986714
132	0x3da1f3ea	0.07907851
133	0xbe92740d	-0.28604165
134	0xbe90e551	-0.28299955
135	0x3ca5317f	0.020165203
136	0xbe910d18	-0.28330302
137	0x3e83641a	0.2566231
138	0x3b8abf18	0.004234206
139	0x3d19274b	0.03739099
140	0x3c77dc55	0.015128215
141	0x3f3cf435	0.7381013
142	0xbf909412	-1.1295187
143	0xbd984809	-0.074356146
144	0x3f1a79a4	0.6034186
145	0xbe83a2d9	-0.2571018
146	0x3eadcaae	0.33943695
147	0xbe9856a0	-0.2975359
148	0xbda4eeed	-0.08053384
149	0x3e3773ca	0.17915264
150	0x3e2619f0	0.16220832
151	0xbeb38d94	-0.35068953
152	0xbd96bb27	-0.07359915
153	0xbf0deeaf	-0.5544233
154	0x3f22f223	0.6365072
155	0x3f43d8ba	0.76502573
156	0x3de4cc07	0.11171728
157	0xbe6cace2	-0.23112825
158	0xbe81662b	-0.2527326
159	0xbf583b35	-0.8446534
160	0x3f036c6c	0.51337314
161	0xbd8b46b1	-0.06800593
162	0x3f2a3270	0.6648321
163	0xbea90108	-0.330086
164	0x3cf4aa5c	0.02986639
165	0x3d3fc269	0.046816263
166	0x3f386f2d	0.7204464
167	0x3f00edf2	0.50363076
168	0xbe50ea9e	-0.20402
169	0xbd9739a2	-0.073840395
170	0x3eab25aa	0.33427173
171	0xbec0a81e	-0.37628263
172	0x3a6d4143	0.0009050557
173	0xbe0df34a	-0.13862339
174	0xbf0e2a43	-0.55533236
175	0x3e920fd4	0.285277
176	0x3f3434a7	0.7039284
177	0xbebcba02	-0.36860663
178	0xbece8ede	-0.40343374
179	0xbeeed4b7	-0.46646664
180	0xbd744b6b	-0.059642237
181	0xbf1574d7	-0.5838141
182	0x3e75bf37	0.23998724
183	0x3e0857f4	0.13314801
184	0xbe50a740	-0.20376301
185	0xbe8b466a	-0.2720216
186	0xbe539838	-0.20663536
187	0x3d86133a	0.06546636
188	0x3e70e2e8	0.23524058
189	0xbef3cc4f	-0.47616813
190	0xbe4c083c	-0.19925016
191	0xbeed2602	-0.4631806
192	0xbf1b35e8	-0.6062913
193	0x3e678096	0.22607645
194	0x3c68c400	0.014206886
195	0x3d1a4a37	0.037668433
196	0x3d48c98a	0.049020328
197	0xbf24a09e	-0.6430758
198	0xbe927216	-0.28602666
199	0xbda8281a	-0.08210774
200	0xbcb0c6c2	-0.02157915
201	0x3f073c17	0.52826065
202	0xbe846fc7	-0.2586653
203	0xbbc9ecac	-0.0061622467
204	0x3eb4b4a2	0.35294062
205	0x3df8b4f1	0.12143887
206	0xbe9d9059	-0.3077419
207	0x3eef92a6	0.4679157
208	0xbdf89420	-0.121376276
209	0xbd8d9636	-0.06913416
210	0xbf0adbf1	-0.54241854
211	0xbe2ef872	-0.17086962
212	0x3f1f9572	0.6233741
213	0xbe42a20f	-0.19007133
214	0xbe884ff2	-0.26623493
215	0x3eb18661	0.34672835
216	0xbd34f32c	-0.04417722
217	0xbeeb6e9d	-0.4598283
218	0xbd89ab56	-0.06722133
219	0x3f2d5bba	0.6771809
220	0xbd8c5c57	-0.0685355
221	0x3eeb627f	0.45973584
222	0x3ed3bf50	0.41356897
223	0x3ed0b79c	0.40765083
224	0x3d298d53	0.041394543
225	0x3d1dc152	0.038514443
226	0xbf2d7c10	-0.6776743
227	0x3ea48c52	0.32138306
228	0x3f594fb6	0.84887254
229	0xbec794b8	-0.3898065
230	0x3d79f052	0.061020203
231	0xbdd5f060	-0.104462385
232	0xbe6fa3db	-0.2340235
233	0xbea0b94f	-0.3139138
234	0x3e87378f	0.26409575
235	0xbe157975	-0.14597113
236	0xbd6076d3	-0.05480082
237	0x3c2e2a4d	0.0106302025
238	0x3ea647cd	0.32476655
239	0x3f2a3724	0.6649039
240	0x3e72980f	0.23690818
241	0xbc2cc2eb	-0.010544519
242	0x3f1e4ff4	0.6184075
243	0xbf128f35	-0.57249767
244	0x3cd98292	0.026551519
245	0x3eb36ef4	0.35045588
246	0x3d2b0de8	0.04176131
247	0xbf871a3a	-1.0554879
248	0xbead5efb	-0.33861527
249	0xbe70039a	-0.23438874
250	0x3f1c4a92	0.61051285
251	0x3d3c37fe	0.045951836
252	0xbe79404a	-0.2434093
253	0xbe55ab61	-0.20866157
254	0x3f2988cf	0.6622438
255	0x3f46e6ff	0.7769622

bias f4 [256]
0	0x3e9ee778	0.31035972
1	0x3ec4fc4d	0.3847374
2	0x3eab44f8	0.33451056
3	0xbf03cb55	-0.51482135
4	0xbe95e517	-0.29276344
5	0xbf4609cd	-0.77358705
6	0xbdfa6efb	-0.12228199
7	0x3f2f53b4	0.68487096
8	0xbf06b451	-0.5261889
9	0xbf464699	-0.77451473
10	0x3f1954ea	0.59895194
11	0xbf350c3d	-0.707218
12	0xbe6e7146	-0.23285398
13	0x3f0a82fc	0.54106116
14	0xbe5f1b38	-0.21787727
15	0xbc4981ea	-0.01229904
16	0xbecfae9b	-0.405629
17	0x3f0e3fa7	0.55565876
18	0xbb93c993	-0.0045101135
19	0x3e35d947	0.17758666
20	0x3f22d19d	0.63601094
21	0xbdb96ca5	-0.090539254
22	0x3eed5918	0.46357036
23	0x3eb5e24f	0.35524222
24	0x3ee380d3	0.44434223
25	0x3f0c9159	0.5490928
26	0xbdc9643e	-0.09833573
27	0xbd0030ce	-0.031296544
28	0x3f400354	0.7500508
29	0x3c4a47bf	0.012346207
30	0xbe7256b6	-0.2366589
31	0x3f09c562	0.5381681
32	0x3e33358f	0.175009
33	0x3eac4b7b	0.33651337
34	0xbed80636	-0.4219224
35	0x3cb5c0d9	0.022186683
36	0xbf5c117f	-0.85964197
37	0x3f301fbf	0.6879844
38	0x3f3713d7	0.7151465
39	0xbe53bde6	-0.2067791
40	0x3f03de6d	0.5151127
41	0xbef52d14	-0.47885954
42	0xbe6a3e80	-0.22875404
43	0x3ed13a4f	0.40864798
44	0x3edef13c	0.43543422
45	0x3d7a0a04	0.061044708
46	0xbf04121d	-0.5159014
47	0xbe6885fe	-0.22707364
48	0xbf43227e	-0.76224506
49	0x3e7c61e5	0.24646719
50	0x3d91538c	0.070960134
51	0x3eac9cbe	0.33713335
52	0x3f3d9758	0.7405906
53	0x3ed704cf	0.41995856
54	0x3eb77cd1	0.35837415
55	0x3f2ac720	0.6671009
56	0xbd0546be	-0.032538168
57	0x3f171631	0.59018236
58	0x3f2bd6db	0.6712472
59	0x3f05fbd8	0.5233741
60	0xbd0a64dc	-0.033787593
61	0x3e46de33	0.194207
62	0x3e15ef14	0.14641982
63	0xbe93cd0b	-0.28867373
64	0x3d80cef8	0.06289476
65	0xbe06796b	-0.13132255
66	0xbe89e40c	-0.26931798
67	0x3f15925c	0.5842645
68	0xbd0d9a9c	-0.034571275
69	0xbd16330e	-0.036669783
70	0xbebc1340	-0.36733437
71	0x3d5a2b28	0.053263813
72	0xbe238d1e	-0.159718
73	0x3c4c54e0	0.012471408
74	0xbeb3dad9	-0.35127905
75	0x3e2314cd	0.15925904
76	0x3f4b55f0	0.79428005
77	0xbe25221b	-0.16126291
78	0x3f0c1f24	0.54735017
79	0xbf542055	-0.82861835
80	0xbe90b6d9	-0.28264502
81	0xbe21e36b	-0.1580941
82	0xbf11fed3	-0.57029456
83	0xbf02b6a1	-0.5105992
84	0xbe7666e1	-0.24062683
85	0x3de631cd	0.112399675
86	0x3e0120cc	0.12610167
87	0x3f10c463	0.5654966
88	0x3f05204e	0.5200242
89	0x3eeca0d1	0.46216443
90	0x3ec0bb0b	0.37642702
91	0xbea9b628	-0.33146787
92	0x3f2139d5	0.6297887
93	0x3d621358	0.05519423
94	0x3e6e0959	0.23245753
95	0x3f040e1e	0.5158404
96	0x3f21bac2	0.63175595
97	0xbf26c5df	-0.6514568
98	0xbd393c96	-0.045223795
99	0x3f122826	0.5709251
100	0xbee8cc0d	-0.45468178
101	0x3e4d28f6	0.20035157
102	0xbf05ead2	-0.5231143
103	0x3e02ad4c	0.1276142
104	0x3e7f1c72	0.24913195
105	0x3f2d5fe5	0.6772445
106	0x3d572740	0.052527666
107	0xbea9ebb8	-0.33187652
108	0x3f2d748a	0.6775595
109	0xbe6a0005	-0.2285157
110	0x3d1293b8	0.035785407
111	0xbf200a42	-0.6251565
112	0xbf09209c	-0.5356538
113	0x3eb16622	0.34648234
114	0xbe7ed557	-0.2488607
115	0x3f231d58	0.6371665
116	0x3e781ac0	0.24228954
117	0xbd171317	-0.03688344
118	0x3ecb1a9f	0.39668748
119	0xbd4e6c35	-0.050396163
120	0x3e3822ad	0.17981978
121	0x3ecc5826	0.39911002
122	0xbd9f2818	-0.07771319
123	0xbf07721c	-0.5290849
124	0x3e14ca7d	0.14530368
125	0xbe8b96b9	-0.2726343
126	0x3ed7b46b	0.42129835
127	0xbefefba8	-0.49801373
128	0xbf39a2fc	-0.7251432
129	0xbdb2e036	-0.08734171
130	0x3ea7edc3	0.32798585
131	0xbeaf287b	-0.34210572
132	0xbe46e0ec	-0.19421738
133	0xbe8637b6	-0.2621438
134	0x3eafc58a	0.34330398
135	0x3ef40a1d	0.47663966
136	0x3ed0b089	0.40759686
137	0x3f0643e8	0.52447367
138	0x3d3eb7f4	0.04656215
139	0x3f2fae12	0.68624985
140	0x3f3a3825	0.7274192
141	0x3f1681b6	0.58791673
142	0xbed39626	-0.41325492
143	0x3f121b4e	0.57072914
144	0x3f0dbd07	0.5536656
145	0xbe839f8f	-0.2570767
146	0xbeb0554b	-0.34440073
147	0x3e67df3f	0.22643755
148	0x3ec17e21	0.3779154
149	0xbedd380e	-0.4320683
150	0xbda67b7c	-0.081290215
151	0x3ec01d7e	0.375225
152	0x3ee730e3	0.45154485
153	0x3ec6cf32	0.38829952
154	0xbe2bc383	-0.167738
155	0x3e8a8b5e	0.27059454
156	0x3e9e308d	0.30896416
157	0xbe29f60c	-0.16597766
158	0xbed1cb03	-0.40975198
159	0xbefc2c2e	-0.49252456
160	0x3cd16132	0.025559042
161	0x3f356a79	0.7086559
162	0x3e25cc64	0.1619125
163	0x3e44f7c7	0.19235145
164	0x3d0ae4a5	0.03390946
165	0xbec94664	-0.39311516
166	0xb9acb20d	-0.00032939055
167	0xbf28bc81	-0.65912634
168	0xbde1a11c	-0.11017057
169	0x3ece7947	0.40326902
170	0x3f31ca8b	0.6944968
171	0x3f3318d3	0.69959754
172	0xbef96eab	-0.48717245
173	0x3e4b0f3b	0.19830029
174	0x3e7e9fe1	0.24865676
175	0x3e4ab180	0.19794273
176	0x3cc86e79	0.02446674
177	0xbf3b3ef6	-0.73142946
178	0xbd1b4ada	-0.03791318
179	0xbf3b422f	-0.73147863
180	0x3f0d1320	0.5510731
181	0x3e67ccd4	0.2263673
182	0x3f0021a6	0.50051343
183	0xbe8c679d	-0.274228
184	0xbe319a20	-0.1734395
185	0x3e9438f8	0.28949714
186	0xbf24ab2b	-0.6432368
187	0x3e38516c	0.1799981
188	0x3d599796	0.05312308
189	0x3d7a5612	0.06111724
190	0x3ed7fe4a	0.42186195
191	0xbf006723	-0.50157374
192	0x3ef3c55b	0.47611508
193	0xbf1539aa	-0.58291113
194	0xbd08f46e	-0.03343623
195	0xbee4b4f2	-0.446693
196	0x3edb0022	0.4277354
197	0xbe830645	-0.2559072
198	0xbe8a3699	-0.2699478
199	0x3ec51923	0.3849574
200	0xbe2a69e7	-0.16641961
201	0x3dbcf14c	0.09225711
202	0xbf586c67	-0.8454041
203	0x3e839e13	0.2570654
204	0xbea21542	-0.31656843
205	0x3ea3ea84	0.3201486
206	0x3e6ce6e4	0.23134953
207	0xbf0e9ddb	-0.5570962
208	0x3e0182c6	0.12647542
209	0x3dd10d30	0.102075934
210	0x3efe5db7	0.49680874
211	0x3f21a588	0.63143206
212	0x3ef5c204	0.47999585
213	0xbf38f75e	-0.7225245
214	0xbe80d06b	-0.2515901
215	0x3ee5a269	0.44850472
216	0xbf23b442	-0.63946927
217	0x3f108ee9	0.56468064
218	0xbf27ba73	-0.65518874
219	0xbf1170a0	-0.5681248
220	0x3eaa16bb	0.33220467
221	0xbed705dc	-0.41996658
222	0x3d364837	0.044502463
223	0x3e30874d	0.17239113
224	0xbdafe849	-0.08589227
225	0xbef798dc	-0.4835881
226	0x3dc6ac02	0.09700777
227	0x3d447ff0	0.047973573
228	0x3e284865	0.16433866
229	0x3d2211b7	0.039567675
230	0x3c758de7	0.014987445
231	0xbd17c31e	-0.037051313
232	0xbf3f18ed	-0.7464741
233	0x3ed0ce88	0.4078257
234	0x3eddc7f4	0.43316615
235	0xbf13f41f	-0.57794374
236	0xbf481000	-0.78149414
237	0xbef4f7de	-0.47845358
238	0x3e99bf34	0.3002869
239	0xbe8f3723	-0.27971753
240	0x3f01a54a	0.50642836
241	0xbf10ea26	-0.5660728
242	0x3e49c372	0.19703463
243	0x3e16e36e	0.14735195
244	0x3f13673e	0.5757941
245	0xbed82d08	-0.42221856
246	0xbe6a242f	-0.22865365
247	0xbd9bc489	-0.076058455
248	0x3cc5e6bd	0.024157876
249	0xbe80f523	-0.25187024
250	0xbe3966ec	-0.18105668
251	0x3dcbc883	0.09950354
252	0x3d9bb950	0.07603705
253	0xbec06b1a	-0.37581712
254	0x3e6a853d	0.22902389
255	0x3e56b2ab	0.20966594

weight f4 [256, 256]
0	0x3da4a065	0.08038405
1	0x3d5ccc50	0.053905785
2	0x3db4accc	0.08822021
3	0xbe5c176b	-0.21493308
4	0xbda2d493	-0.079507016
5	0xbe0bc37c	-0.1364879
6	0xbd0c66fa	-0.034277894
7	0x3decb4cb	0.11557921
8	0xbdbce4d3	-0.09223332
9	0xbd648a11	-0.055795733
10	0x3e15f691	0.14644839
11	0xbe079316	-0.13239703
12	0x3a7b3749	0.0009583128
13	0x3e75024c	0.23926657
14	0xbd4b4fa6	-0.049636506
15	0x3d370c92	0.044689722
16	0xbd0c9fb0	-0.034331977
17	0x3d5c17c8	0.053733617
18	0x3c314c27	0.010821379
19	0x3e0253e0	0.12727308
20	0x3e1b0731	0.15139462
21	0xbd8fbf4c	-0.07018909
22	0x3e077c79	0.13231076
23	0x3e76fd09	0.24119963
24	0x3d64fa6c	0.055902883
25	0x3dc64983	0.0968199
26	0x3cab10d2	0.020882044
27	0xbc37c00d	-0.011215222
28	0x3ec5436f	0.3852801
29	0xbdcbff6a	-0.09960826
30	0xbc847c1a	-0.016172457
31	0x3d35450f	0.044255313
32	0x3c29690b	0.010339986
33	0x3ea03d48	0.31296754
34	0xbbfe4ab6	-0.007760371
35	0x3cef9864	0.02924747
36	0xbe19e1ed	-0.1502759
37	0x3ed970d9	0.42468908
38	0x3db83e3f	0.089962475
39	0xbdf18a30	-0.11793935
40	0x3e0b126f	0.1358125
41	0xbdbdc721	-0.092664964
42	0xbda7b8a6	-0.08189516
43	0x3de100bc	0.10986468
44	0xbc18d494	-0.009328026
45	0x3d0d9a8a	0.034571208
46	0xbdab421e	-0.0836222
47	0x3c944442	0.018098954
48	0xbdf824fd	-0.1211643
49	0x3e4161c6	0.18884954
50	0x3c96664f	0.018359331
51	0x3d1c9175	0.038224656
52	0x3e5ef85f	0.21774434
53	0x3e7ea3e7	0.24867211
54	0x3e19b04b	0.15008657
55	0x3ee98f79	0.45617273
56	0x3d1368e8	0.03598872
57	0x3e27de0c	0.16393298
58	0x3d924669	0.07142336
59	0x3db67e28	0.08910781
60	0xbb4960a9	-0.003072778
61	0xbd940fdf	-0.0722959
62	0xbc9da284	-0.019242533
63	0xbe4be432	-0.19911268
64	0x3da80f03	0.08205988
65	0x3cfd18f5	0.03089569
66	0xbdf43168	-0.11923486
67	0x3de79b81	0.11308957
68	0xbd388c5b	-0.04505573
69	0xbcb04b3f	-0.021520255
70	0xbe84e573	-0.25956306
71	0x3bdd3c76	0.0067515923
72	0x3c5e4c11	0.01356794
73	0xbd4720ac	-0.048615143
74	0xbd8ccff8	-0.068756044
75	0x3c3034a5	0.010754739
76	0x3e86d68f	0.2633557
77	0xbda4882b	-0.080337845
78	0x3deee16c	0.116640896
79	0xbe08322c	-0.13300389
80	0xbd9d4f6f	-0.076811664
81	0xbda06f69	-0.0783375
82	0xbd71e4cd	-0.059056092
83	0xbdf523d3	-0.119697236
84	0xbcbdec0a	-0.023183841
85	0xbd0d2c78	-0.034466237
86	0x3d5d202d	0.053985763
87	0x3d97f19f	0.074191324
88	0x3d81c74d	0.06336842
89	0x3e3f26be	0.18667123
90	0x3d448a8a	0.047983684
91	0xbdbbbe64	-0.091671735
92	0x3e232948	0.15933716
93	0x3d86ae80	0.06576252
94	0x3e31ca39	0.17362298
95	0x3ee5b4cd	0.44864503
96	0x3ca39341	0.019967677
97	0xbe15d843	-0.14633279
98	0xbdb9645d	-0.09052346
99	0x3e2f297a	0.17105666
100	0xbf3cb2cb	-0.73710316
101	0x3d72cbb2	0.05927629
102	0xbe0d51e8	-0.13800776
103	0xbd6b1d14	-0.057400778
104	0x3d91181f	0.07084679
105	0x3e31f2ce	0.17377779
106	0xbac615b2	-0.0015112667
107	0xbd974917	-0.07386988
108	0x3e8752eb	0.2643045
109	0xbe57ff22	-0.21093419
110	0xbc321306	-0.010868793
111	0xbeb4fb31	-0.35347894
112	0xbdfffb5d	-0.124991156
113	0xbd038f3b	-0.032119017
114	0xbd73bc54	-0.059505776
115	0x3dbbfcdc	0.091790885
116	0x3c5914ac	0.013249557
117	0x3d426de5	0.047468085
118	0x3d5d7d21	0.05407441
119	0xbd60a50b	-0.054844897
120	0xbc94b2fa	-0.018151749
121	0x3e40a623	0.18813376
122	0xbcccffb3	-0.02502427
123	0xbe136bf5	-0.14396651
124	0xbce84689	-0.028353946
125	0x3d10f41f	0.035389062
126	0x3e5d3be7	0.21604882
127	0xbe1a81e3	-0.1508861
128	0xbdb846ee	-0.08997904
129	0xbc79824f	-0.015228822
130	0x3d7eea00	0.06223488
131	0xbe0295ec	-0.12752503
132	0xbd6cea25	-0.057840485
133	0xbddb824b	-0.10718211
134	0x3cbc38c1	0.022976281
135	0x3da4ee66	0.080532834
136	0x3e513edd	0.20434137
137	0x3e2da13b	0.16956036
138	0xbd03f4f0	-0.032216012
139	0x3e996b6b	0.29964766
140	0x3ec70f1a	0.3887871
141	0x3e50abe1	0.20378067
142	0xbdc67c58	-0.096916854
143	0x3e3a5c19	0.18199195
144	0x3aac94ad	0.0013166867
145	0xbd99b867	-0.07505875
146	0xbd6518b6	-0.05593177
147	0x3d6fcfda	0.058547832
148	0xbca0c213	-0.019623792
149	0xbde607b8	-0.11231941
150	0x3cdf4b99	0.027257727
151	0x3d9def49	0.07711656
152	0x3e123d9f	0.14281319
153	0xbcaf432c	-0.021394335
154	0xbd46f796	-0.04857596
155	0x3ce8a1e0	0.0283975
156	0x3e6520a3	0.22375731
157	0xbe3cddf9	-0.18444051
158	0xbda205dc	-0.07911274
159	0xbdc62d0e	-0.09676562
160	0xbdc3b761	-0.09556461
161	0x3e6fed5c	0.23430389
162	0x3d8c927d	0.06863878
163	0x3cf3cda5	0.029761145
164	0xbd18a616	-0.037267767
165	0xbda0d759	-0.07853574
166	0x3c3ac872	0.011400329
167	0xbdfe3fa6	-0.12414484
168	0xbc3fbcb3	-0.011702704
169	0x3e23ae42	0.15984443
170	0x3da9c8ec	0.08290276
171	0x3e629b46	0.22129545
172	0xbe10b080	-0.1412983
173	0xbc0b0683	-0.008485439
174	0x3e033e51	0.1281674
175	0x3d7f5283	0.06233455
176	0x3ddf3a7c	0.10899827
177	0xbe60afd8	-0.21942079
178	0x3923a5bb	0.00015606631
179	0xbdab3e76	-0.08361523
180	0x3d3fdfc7	0.04684427
181	0x3de6dd1a	0.112726405
182	0x3e20d485	0.1570607
183	0xbe6fc94a	-0.2341663
184	0xbdcf5f92	-0.101256505
185	0x3e34c10b	0.17651765
186	0xbe165940	-0.14682484
187	0xbc0c72d6	-0.008572301
188	0xbd2e1a99	-0.042505834
189	0xbcc67d91	-0.024229797
190	0x3da9e4a1	0.08295561
191	0xbe22421a	-0.15845528
192	0x3e556770	0.2084024
193	0xbd24fc3d	-0.040279616
194	0xbd52b6c3	-0.051443826
195	0xbddc974b	-0.10771044
196	0x3d6c1280	0.05763483
197	0xbd369a7a	-0.044580914
198	0xbdced625	-0.100994386
199	0x3d537194	0.05162199
200	0xbd38cc4c	-0.045116708
201	0xbd91f717	-0.07127207
202	0xbdddee6b	-0.1083649
203	0x3d53c482	0.051701076
204	0xbc331070	-0.010929212
205	0x3d3940a9	0.04522768
206	0x3d9f4cf2	0.07778348
207	0xbeaf607a	-0.34253293
208	0x3d5fbb18	0.054621786
209	0x3d27c243	0.040956747
210	0x3cc5e16c	0.024155341
211	0x3e00147c	0.12507814
212	0x3e07f74b	0.13277929
213	0xbd8e7beb	-0.06957229
214	0x3d0e6117	0.03476056
215	0x3def68dc	0.11689922
216	0xbe04fe08	-0.1298753
217	0x3d2debfe	0.042461388
218	0xbe56dd16	-0.20982775
219	0xbdc6f98b	-0.09715565
220	0xbd63d3ae	-0.055621795
221	0xbe0fcdc4	-0.14043337
222	0x3e11b1ef	0.14228033
223	0x3d98ed65	0.074671544
224	0xbdccd3e1	-0.1000135
225	0xbe085ec2	-0.13317397
226	0x3d1e975d	0.03871857
227	0x3d1273da	0.035755016
228	0x3d2c647b	0.042088013
229	0x3d30e1df	0.043184157
230	0x3b983063	0.00464444
231	0xbd1b1369	-0.037860308
232	0xbdf08dc8	-0.117457926
233	0x3d1ba65a	0.038000442
234	0x3e176657	0.14785133
235	0xbdabb9f4	-0.08385077
236	0xbe22d31f	-0.15900849
237	0xbce789e8	-0.028264001
238	0x3d7e9aa9	0.062159214
239	0xbcabb2fc	-0.02095937
240	0x3e1a26db	0.15053885
241	0xbdbeb4f9	-0.093118615
242	0x3b936f87	0.004499379
243	0x3be87278	0.007093724
244	0x3d9a06f1	0.07520855
245	0xbd91d4db	-0.07120677
246	0x3c79bf21	0.015243323
247	0xbd74c89b	-0.059761625
248	0x3d40de40	0.047086954
249	0xbd932a00	-0.07185745
250	0xbd41fb6f	-0.047358926
251	0x3c816126	0.015793394
252	0x3d4e6203	0.05038644
253	0xbe36c00e	-0.178467
254	0x3de021ff	0.10943984
255	0xba0bcfbb	-0.00053333835

bias f4 [256]
0	0x3e0583e3	0.13038592
1	0x3df517a0	0.11967397
2	0xbcea5205	-0.028603563
3	0x3e23c361	0.159925
4	0xbda2b20a	-0.079441145
5	0x3d3ef8f9	0.046624158
6	0x3d0dfdd7	0.03466591
7	0x3cb9ab4b	0.022664687
8	0xbd9cf4cd	-0.076638795
9	0x3cca7f9a	0.024719048
10	0x3dadb68a	0.08482082
11	0xbcd5ee5f	-0.02611464
12	0xbc7becb7	-0.015376261
13	0xbc6f889e	-0.014619974
14	0xbda72778	-0.08161825
15	0x3d882c15	0.06649033
16	0x3de4a7bb	0.111648045
17	0xbdc06b92	-0.093955174
18	0xbdbcdeaf	-0.09222161
19	0x3e127ea1	0.14306118
20	0x3cdf19e1	0.02723402
21	0xbdee6f8f	-0.11642372
22	0x3cabaa7b	0.020955315
23	0xbd5e2f2d	-0.05424421
24	0x3e0113a3	0.12605147
25	0xbd9eddd6	-0.077571556
26	0xbcb1b556	-0.021692913
27	0x3da554c2	0.08072807
28	0xbda95d24	-0.08269718
29	0x3d18663a	0.037206866
30	0xbd8ce8dd	-0.06880353
31	0x3dfa1de5	0.12212733
32	0x3dff4519	0.12464351
33	0xbb501541	-0.003175095
34	0x3df6e358	0.12055081
35	0xbd9da27e	-0.076970086
36	0x3cef9dba	0.029250015
37	0x3d5cc285	0.053896446
38	0xbd9035ae	-0.070414886
39	0x3d5a2df6	0.053266488
40	0x3d35936f	0.044330057
41	0x3d54de6f	0.05196994
42	0xbd49456a	-0.049138464
43	0x3e2896fc	0.16463846
44	0xbc68e1e4	-0.014214013
45	0x3da74307	0.08167081
46	0xbbd6d2c2	-0.006555886
47	0xbd6cf192	-0.057847567
48	0x3dfc2a6b	0.12312778
49	0x3dc17f4b	0.09448107
50	0x3d7ed4a0	0.062214494
51	0x3e0462fb	0.12928383
52	0x3d56649f	0.052342054
53	0xbbe9bf16	-0.007133375
54	0x3d2c399d	0.04204713
55	0x3350b800	4.859612e-08
56	0x3e06bc4b	0.13157766
57	0x3d4d3dbb	0.0501077
58	0x3da39646	0.07987647
59	0x3d8a9b71	0.06767929
60	0x3e052c36	0.13005146
61	0xbdad5263	-0.0846298
62	0x3e099f94	0.1343978
63	0xbdb32406	-0.08747105
64	0x3ca7bc7f	0.020475624
65	0xbc978959	-0.01849811
66	0x3dd58701	0.104261406
67	0x3d217c40	0.039425135
68	0x3d3b09d9	0.04566369
69	0xbc86f6d8	-0.016475126
70	0xbddc99b0	-0.10771501
71	0xbbd61254	-0.0065329466
72	0xbd137399	-0.035998914
73	0x3d4a6953	0.04941685
74	0xb818e0da	-3.6449033e-05
75	0xbc060ec8	-0.008182235
76	0x3e034dbd	0.12822624
77	0xbd78d1f6	-0.06074711
78	0xbb1a749d	-0.0023568042
79	0xbd93e272	-0.072209254
80	0x3de69033	0.112579726
81	0xbc48072d	-0.012208742
82	0xbcd1523f	-0.025551913
83	0x3debecbd	0.115197636
84	0x3bb255d1	0.005442359
85	0x3ce59686	0.028025877
86	0x3d619d05	0.055081386
87	0x3e0b08e3	0.13577609
88	0x3cec2442	0.028825883
89	0x3d1542a5	0.03644051
90	0x3e180dbf	0.14848994
91	0x3dcf4990	0.10121453
92	0x3d0bac3b	0.0340998
93	0x3d8663b7	0.06561988
94	0xbc0bb1e4	-0.008526299
95	0x3da4fab5	0.08055631
96	0x3d5a741c	0.053333387
97	0xbc8e05bd	-0.01733672
98	0x3dcd6b45	0.10030226
99	0x3d96a2a0	0.07355237
100	0x3d902edb	0.07040187
101	0x3d85a3bd	0.06525371
102	0x3ccdb5fa	0.025111187
103	0x3d87a782	0.066237465
104	0x3db27fbf	0.08715772
105	0x3d232d67	0.03983822
106	0x3d8eacf7	0.06966584
107	0x3d57d4bd	0.052693117
108	0xbdd0feb9	-0.102048345
109	0x3dbf9c09	0.09355933
110	0xbdad6a32	-0.08467521
111	0x3d617d72	0.055051275
112	0x3dcf00bf	0.10107564
113	0x3c318d56	0.01083692
114	0x3e0a2d4d	0.13493843
115	0x3e110633	0.14162521
116	0x3d68f000	0.056869507
117	0x3dc1d861	0.09465099
118	0x3d422b8e	0.04740482
119	0xbd907d7d	-0.07055185
120	0x3d021e10	0.03176695
121	0x3d4e3eb3	0.050352763
122	0x3d8c8704	0.0686169
123	0x3e0a58e1	0.13510467
124	0x3d18aa1c	0.037271604
125	0x3d9345e4	0.07191065
126	0x3b1fbe0a	0.0024374747
127	0xbc1825f6	-0.009286394
128	0x3e076a6b	0.13224189
129	0x3cf38646	0.029727113
130	0x3de688be	0.1125655
131	0x3d0e966a	0.034811415
132	0x3daa5d8a	0.083186224
133	0xbd0cbd78	-0.03436038
134	0x3d31e633	0.043432426
135	0x3d2f8e44	0.042860284
136	0x3d95b16e	0.07309233
137	0xbccb19b5	-0.024792532
138	0xbb16f74d	-0.0023035586
139	0x3d7a4ed2	0.061110325
140	0x3e0ea8bc	0.13931555
141	0x3da7fb47	0.08202224
142	0x3d992ea2	0.07479598
143	0x3d25bf76	0.040465795
144	0xbce22b41	-0.027608516
145	0x3c76c4e2	0.015061589
146	0x3db31c71	0.08745659
147	0xbd411b17	-0.047144976
148	0x3d1a2e2b	0.037641685
149	0x3dc9ae45	0.098476924
150	0x3dc7d713	0.09757819
151	0x3da7813e	0.08178948
152	0x3d9e3df3	0.077266596
153	0xbdd8b0a8	-0.105805695
154	0xbd799804	-0.06093599
155	0x3cce5551	0.025187166
156	0xbdad62bf	-0.084661
157	0x3cc19939	0.023632633
158	0xbd019060	-0.031631827
159	0xbd75e13f	-0.060029265
160	0xbcfeba33	-0.031094646
161	0xbcd99a3d	-0.026562804
162	0xbdb73649	-0.08945901
163	0xbce58c27	-0.028020931
164	0xbdd2f0a1	-0.102998026
165	0xbcbd5844	-0.023113377
166	0x3dc28feb	0.095001064
167	0xbc29f88e	-0.010374201
168	0xbdaaaf32	-0.08334197
169	0xbd414ea9	-0.047194157
170	0xbd766517	-0.060155
171	0xbcd01011	-0.025398286
172	0x3e1c6153	0.15271501
173	0x3c8c309c	0.017113023
174	0x3db5fad0	0.08885729
175	0xbd534fa8	-0.051589638
176	0x3cf86d1f	0.03032547
177	0xbd78cc10	-0.060741484
178	0x3e16baff	0.14719771
179	0x3da608aa	0.08107121
180	0x3d0d0670	0.034429967
181	0x3d767904	0.060174003
182	0xbd938c05	-0.07204441
183	0xbc6a9cbf	-0.014319598
184	0x3d94fb2e	0.07274471
185	0x3e0a017d	0.1347713
186	0x3e15bef7	0.14623629
187	0x3d1904fa	0.03735826
188	0x3cc18d9a	0.023627091
189	0xbd01819d	-0.03161775
190	0x3dadcfee	0.08486925
191	0x3e016f50	0.12640119
192	0x3c0653e6	0.008198714
193	0x3d32d299	0.043657873
194	0xbd32ac35	-0.04362126
195	0x3de21b4a	0.11040361
196	0x3c0df22a	0.008663693
197	0x3cfa8c0b	0.030584356
198	0x3c8c87d3	0.01715461
199	0xbd7559fb	-0.059900265
200	0xbd57fa18	-0.052728742
201	0x3d5ee153	0.054414105
202	0x3c82125a	0.015877891
203	0x3c9a21b9	0.018814908
204	0xbba5742f	-0.0050492506
205	0x3db8322c	0.089939445
206	0xbc9b30b8	-0.01894413
207	0x3d21ffe6	0.039550684
208	0xbd067249	-0.032823835
209	0xbd638426	-0.05554595
210	0x3d79fe02	0.061033256
211	0xbd992329	-0.074774094
212	0x3df0b533	0.11753311
213	0x3cf77be4	0.030210443
214	0x3dbd2d26	0.09237127
215	0x3dd35639	0.1031918
216	0x3d1c599b	0.038171392
217	0xbdb33ec4	-0.08752206
218	0x3df0502e	0.11734043
219	0xbd5444eb	-0.051823538
220	0xbd85ff02	-0.065427795
221	0xbc2f8352	-0.010712462
222	0xbd14d57e	-0.036336415
223	0x3dbd7bba	0.092521146
224	0x3e0758e9	0.1321751
225	0xbd0c9fb7	-0.034332003
226	0x3e06f1c9	0.13178171
227	0x3bf20f36	0.007387067
228	0x3bcf7621	0.0063312207
229	0x3dd03361	0.1016605
230	0xbd12cb83	-0.035838615
231	0x3dc17319	0.09445781
232	0x3da42ae0	0.0801599
233	0x3d822820	0.063553095
234	0xbbfd9231	-0.0077383746
235	0x3e17f993	0.14841299
236	0x3dc0fe3e	0.09423493
237	0x3d86ee44	0.06588414
238	0x3c9446d9	0.018100189
239	0x3cfaec28	0.030630186
240	0x3d10ae4a	0.035322465
241	0xbdda782f	-0.106674545
242	0x3a7686d7	0.0009404248
243	0xbde1dcb0	-0.11028421
244	0x3e24f2b4	0.16108209
245	0x3db82c69	0.089928456
246	0xbd55d974	-0.052209333
247	0xbd8a5aa8	-0.067555726
248	0x3d824feb	0.063628994
249	0xbc69714a	-0.014248202
250	0x3cffcf90	0.031226903
251	0x3d80a36a	0.06281169
252	0x3df2fff4	0.118652254
253	0x3d4b4155	0.049622852
254	0x3d47469a	0.048651315
255	0x3b8d520e	0.00431276

weight f4 [32, 256]
0	0xbc7ebf3d	-0.015548524
1	0xbd99f7cd	-0.075179674
2	0x3dbbca12	0.09169401
3	0x3d621289	0.055193458
4	0x3e10ab21	0.1412778
5	0xbd6de2ce	-0.058077626
6	0x3e0ed3fe	0.13948056
7	0x3d683024	0.056686535
8	0x3ccbd166	0.024880122
9	0xbe020bb4	-0.12699777
10	0xbe54586f	-0.2073686
11	0x3e24b12b	0.16083209
12	0x3dc409b1	0.09572161
13	0xbde97d6b	-0.11400875
14	0xbdc629e7	-0.09675961
15	0xbeddafc4	-0.4329816
16	0xbe2a4541	-0.16627981
17	0x3dcd1baa	0.10015042
18	0x3c8df32b	0.017327866
19	0xbdef1f07	-0.1167584
20	0xbe277dfd	-0.16356654
21	0xbc25c699	-0.01011815
22	0xbdbe2e0f	-0.09286129
23	0x3e200fd4	0.15631038
24	0xbd8b8823	-0.068130754
25	0x3e0bc5d6	0.13649687
26	0xbf90f3b3	-1.1324371
27	0xbde97dee	-0.11400972
28	0xbc9dc454	-0.019258656
29	0xbe256eae	-0.16155502
30	0xbd3df2dd	-0.04637419
31	0x3d31d87d	0.04341935
32	0xbd835f84	-0.064147025
33	0x3ddd7b33	0.10814514
34	0xbeaffb56	-0.34371442
35	0xbdc7130c	-0.0972043
36	0x3d8679fa	0.06566234
37	0x3dc2c1ff	0.09509658
38	0x3e155c56	0.14586005
39	0xbde02479	-0.109444566
40	0xbd689805	-0.056785602
41	0xbd3bd626	-0.045858525
42	0x3e3d96cd	0.18514557
43	0xbcaadefe	-0.020858284
44	0xbd908c98	-0.07058066
45	0xbdba0570	-0.09083068
46	0x3db54642	0.08851291
47	0x3deeb4cc	0.11655578
48	0xbdf836ab	-0.12119802
49	0xbdc5d5ad	-0.09659896
50	0xbceb29b5	-0.02870641
51	0xbe22379d	-0.15841527
52	0x3e16c453	0.14723329
53	0xbdf677cd	-0.12034569
54	0xbda7780b	-0.08177193
55	0x3e0de0da	0.13855305
56	0xbe8e1178	-0.27747703
57	0xbd32d9df	-0.04366481
58	0x3d8fdce5	0.07024554
59	0xbcb58fb1	-0.022163244
60	0xbd906865	-0.07051162
61	0x3d78ac9f	0.0607115
62	0xbdc7f11e	-0.09762786
63	0xbd63c7f6	-0.05561062
64	0xbe206bcb	-0.1566612
65	0x3e0c74fa	0.13716498
66	0xbdc133d0	-0.094337106
67	0xbe2103a5	-0.15724047
68	0xbd2d8f6c	-0.042373106
69	0x3de92b34	0.113851935
70	0xbdbdcdf2	-0.092677966
71	0x3e2222b4	0.1583355
72	0x3db73e61	0.08947445
73	0x3e1c89e4	0.15286976
74	0x3dbec71c	0.09315321
75	0x3e27deac	0.16393536
76	0xbeb2480e	-0.34820598
77	0x3dc6760e	0.09690486
78	0xbc90a6b3	-0.017657613
79	0x3c128e98	0.00894513
80	0xbdb799ab	-0.08964857
81	0x3e0d45d2	0.13796166
82	0x3db19511	0.0867101
83	0xbdefb269	-0.11703951
84	0x3de1c8d2	0.110246316
85	0xbe5bbd3e	-0.21458909
86	0xbd783e58	-0.06060633
87	0xbca9d7d3	-0.020732796
88	0x3e167a64	0.14695126
89	0x3bf6292c	0.0075122323
90	0xbe127b68	-0.14304888
91	0xbe378bbc	-0.17924398
92	0xbba355ac	-0.004984578
93	0xbd577289	-0.052599464
94	0x3d993ffa	0.07482906
95	0xbe76a59a	-0.2408661
96	0xbdb46fec	-0.0881041
97	0x3e1611dd	0.14655252
98	0xbcc7d376	-0.024392825
99	0x3df7a13f	0.12091302
100	0x3e110718	0.14162862
101	0xbe03fd85	-0.12889679
102	0xbe477452	-0.19477966
103	0x3dd5a952	0.10432686
104	0xbd42c0f8	-0.04754731
105	0xbd135257	-0.035967197
106	0xbd8505a0	-0.064952135
107	0x3e01f8b0	0.12692523
108	0x3ca72c09	0.02040674
109	0x3be0b810	0.0068578795
110	0xbc0df619	-0.008664631
111	0x3ddad6d9	0.1068551
112	0xbcd06936	-0.025440793
113	0x3de0888a	0.10963543
114	0xbdb4d4d6	-0.08829658
115	0xbe1aca62	-0.15116265
116	0xbd5f123c	-0.05446075
117	0xbd9d31a8	-0.07675487
118	0x3e19aa90	0.1500647
119	0x3ceb1bf0	0.028699845
120	0xbd595dd8	-0.053068012
121	0x3e010540	0.12599659
122	0xbe2ce817	-0.1688541
123	0xbdad40e0	-0.084596395
124	0xbe3536cc	-0.17696685
125	0xbc4cc81e	-0.0124988835
126	0x3d8178e6	0.06321888
127	0x3e085766	0.1331459
128	0xbe2a2e4f	-0.16619228
129	0xbd8834e5	-0.06650714
130	0xbdbf7cd5	-0.09349982
131	0x3df3b7e5	0.119003095
132	0x3e2a1b4f	0.1661198
133	0x3dcba7d6	0.099441215
134	0xbdcd40f7	-0.10022157
135	0xbe0216dc	-0.12704033
136	0xbdec9ab7	-0.11552947
137	0x3deb79fe	0.114978775
138	0x3e14e3db	0.14540045
139	0xbdeddb93	-0.11614146
140	0xbe723400	-0.23652649
141	0xbf348b68	-0.7052522
142	0xbdc12979	-0.094317384
143	0x3dae30f2	0.08505429
144	0x3d65011c	0.05590926
145	0x3dfee150	0.12445319
146	0xbd2eab23	-0.042643677
147	0x3e2833bb	0.16425984
148	0xbe761998	-0.240332
149	0xbd4dcfde	-0.050247066
150	0x3cef5cd2	0.029219065
151	0x3bfc9139	0.0077077416
152	0xbf6a3f67	-0.91502994
153	0x3d0c04b4	0.034184173
154	0xbd10d18f	-0.0353561
155	0x3dff0602	0.12452318
156	0x3c57e1b0	0.013176367
157	0x3e0f19c7	0.13974677
158	0x3d373c6c	0.044735357
159	0x3d991eef	0.07476603
160	0x3cb546f9	0.022128569
161	0x3e235c8a	0.1595327
162	0xbd9a2e3d	-0.075283505
163	0xbfb0ac4e	-1.3802583
164	0xbe09d3d2	-0.1345971
165	0x3dae0c90	0.0849849
166	0x3c8ab43a	0.016931642
167	0x3e1ec241	0.1550379
168	0xbc6de383	-0.014519575
169	0x3d94fbaf	0.07274567
170	0x3d49fccb	0.049313348
171	0x3ccf3d5a	0.02529781
172	0xbb8817e9	-0.004153241
173	0x3cf932a4	0.030419655
174	0xbd01b958	-0.0316709
175	0x3dcb4544	0.09925321
176	0xbf736251	-0.95071894
177	0x3e273637	0.16329275
178	0xbd822d6f	-0.06356322
179	0xbd89d4f7	-0.06730073
180	0x3dbd9ec8	0.09258801
181	0x3c7167dd	0.014734236
182	0x3ceb2cf9	0.028707968
183	0x3d921363	0.07132604
184	0xbdba9a1c	-0.09111425
185	0xbe7d00c7	-0.24707328
186	0xbdd39e9f	-0.10332989
187	0xbde8bcee	-0.113641605
188	0x3e2b40ba	0.1672391
189	0x3d8baa35	0.06819574
190	0xbd07f7dd	-0.033195365
191	0xbe4bcf68	-0.19903338
192	0x3d423bbd	0.047420252
193	0x3cfb282a	0.0306588
194	0x3dd1f3bb	0.10251566
195	0xbdb0eb66	-0.08638649
196	0x3d724499	0.05914745
197	0xbc6b7208	-0.014370449
198	0x3df5c04e	0.1199957
199	0xbdd87ab4	-0.10570279
200	0xbdb517b7	-0.08842414
201	0xbdd9001c	-0.10595724
202	0x3d97dda0	0.074153185
203	0xbe67014d	-0.2255909
204	0x3e03e977	0.12882029
205	0xbe202c73	-0.15641956
206	0x3d545962	0.051843055
207	0xbda99ecc	-0.08282241
208	0x3df7896d	0.12086759
209	0xbcf21819	-0.029552506
210	0x3d912f70	0.07089126
211	0x3d07ae58	0.03312525
212	0xbf2d4743	-0.6768686
213	0xbd317813	-0.043327402
214	0x3db51fe7	0.088439755
215	0xbc5fdd24	-0.013663564
216	0xbdb64c37	-0.089012556
217	0xbe0033de	-0.12519786
218	0xbd59c649	-0.053167615
219	0xbe625914	-0.22104293
220	0xbcd4876c	-0.02594348
221	0x3e288b06	0.16459283
222	0x3dfceea0	0.123502016
223	0xbe20a544	-0.15688044
224	0xbdbfc9cf	-0.09364664
225	0x3e2b99e7	0.16757928
226	0xbd450276	-0.04809805
227	0x3e35b53e	0.1774492
228	0x3e065a6f	0.13120435
229	0xbd85e2d3	-0.06537404
230	0x3dc092e4	0.09403017
231	0xbdde1468	-0.10843736
232	0xbc42d599	-0.011891746
233	0x3e34a97b	0.17642777
234	0x3e1a577c	0.15072435
235	0xbd55cbe2	-0.05219639
236	0xbda31336	-0.079626486
237	0xbbd77ac3	-0.0065759136
238	0xbd526223	-0.05136312
239	0xbe824fff	-0.25451657
240	0xbf2d93c6	-0.6780361
241	0xbd267379	-0.040637467
242	0x3de7f59c	0.11326143
243	0xbd3202bf	-0.04345965
244	0xbce4eb18	-0.027944133
245	0xbe34bf10	-0.1765101
246	0x3d6f1366	0.05836811
247	0x3b98c0b1	0.0046616425
248	0xbd8bf8b4	-0.06834546
249	0x3db975ee	0.090556964
250	0xbe30b7a5	-0.17257555
251	0x3e16699a	0.14688721
252	0x3d17c880	0.037056446
253	0xbe117b88	-0.1420728
254	0xbdf8e4ab	-0.1215299
255	0x3e3948c2	0.18094161

bias f4 [32]
0	0x3d581c7c	0.05276154
1	0x3e126ed6	0.14300093
2	0xbdf3796b	-0.11888393
3	0x3c3486fa	0.011018509
4	0xbe2795c4	-0.16365725
5	0xbb98a588	-0.0046584047
6	0xbdb26cc3	-0.08712151
7	0x3e7d61af	0.24744295
8	0xbe167cb3	-0.14696006
9	0xbcd63c1d	-0.026151711
10	0xb97588fe	-0.00023416054
11	0x3dd94500	0.10608864
12	0xbc76ee93	-0.015071529
13	0xbe145c79	-0.144884
14	0xbcb6d166	-0.022316646
15	0xbda77113	-0.08175864
16	0xbde46ab8	-0.111531675
17	0x3e44e1f1	0.19226815
18	0xbdfff834	-0.12498513
19	0x3d5b512c	0.05354421
20	0xbd0e9f55	-0.03481992
21	0xbe213de1	-0.15746261
22	0xbe258d36	-0.16167149
23	0xbe1be3ff	-0.15223692
24	0x3e048339	0.12940682
25	0xbde28b9d	-0.11061785
26	0xbd6c75ff	-0.057729717
27	0x3dbcc9d6	0.09218185
28	0x3db7f2e1	0.08981872
29	0x3d9e5003	0.07730105
30	0x3e342ccb	0.17595212
31	0x3d8cca59	0.06874532

weight f4 [256, 32]
0	0xbf07569f	-0.5286655
1	0x3e9038d3	0.28168353
2	0x3d03eee4	0.032210246
3	0xbe9eb180	-0.30994797
4	0x3e35d470	0.1775682
5	0x3e21c66f	0.15798353
6	0xbe35b4b7	-0.17744718
7	0x3d17e63f	0.037084814
8	0x3e567bb7	0.20945631
9	0x3e56b908	0.20969021
10	0xbe9bbd5a	-0.304179
11	0x3e6c4ea6	0.23076877
12	0xbd04d1a0	-0.032426476
13	0x3bf98a15	0.0076153376
14	0xbd64fc2b	-0.05590455
15	0x3e463387	0.19355594
16	0x3e2d29a9	0.16910423
17	0xbd8039a1	-0.06260992
18	0x3f08a660	0.5337887
19	0xbe1556a4	-0.14583832
20	0x3cf10382	0.029420618
21	0xbd832d42	-0.064051166
22	0x3e5f7334	0.2182129
23	0xbce2c9be	-0.027684089
24	0xbf14b8b4	-0.58094335
25	0x3f01eae3	0.50749034
26	0x3e463a06	0.19358072
27	0xbe64e559	-0.22353114
28	0xbec9a52d	-0.39383832
29	0xbe83de4a	-0.2575553
30	0x3d3feefc	0.046858773
31	0x3e4fc0a0	0.20288324
32	0xbf155666	-0.5833496
33	0xbdc4fdb0	-0.096186996
34	0x3ef36931	0.47541192
35	0xbe532baa	-0.20622125
36	0x3f04884f	0.5177049
37	0x3e1fd944	0.15610224
38	0xbd51afed	-0.051193167
39	0xbd3f81d0	-0.04675466
40	0x3eb3ed69	0.35142067
41	0x3e5fe706	0.21865472
42	0xbe81d406	-0.25357074
43	0x3dff287d	0.124588944
44	0xbe50e977	-0.2040156
45	0x3de79090	0.1130687
46	0xbe60f29d	-0.2196755
47	0x3da71513	0.081583165
48	0x3e931fca	0.2873519
49	0xbde4bf1c	-0.11169264
50	0x3f265374	0.6497109
51	0xbe51f66d	-0.2050416
52	0xbd45f057	-0.04832491
53	0x3dabb174	0.08383456
54	0x3f0aebf3	0.5426628
55	0x3e49ae16	0.19695315
56	0xbefa6db1	-0.48911813
57	0x3eee9e90	0.4660535
58	0x3e59b8a3	0.2126184
59	0xbdd85c39	-0.10564465
60	0xbed0b2b8	-0.40761352
61	0xbe9d40d3	-0.3071352
62	0x3da0526a	0.07828219
63	0xbdb25372	-0.08707322
64	0x3caf8d5c	0.02142971
65	0xbd5ad7fb	-0.05342863
66	0xbdb647e9	-0.089004345
67	0x3e5b781b	0.21432535
68	0xbe4f740b	-0.2025911
69	0x3d9f7379	0.077856965
70	0xbe8d7e5f	-0.27635476
71	0x3e6439ce	0.22287676
72	0xbe05c8e0	-0.13064909
73	0xbe218a1e	-0.15775344
74	0x3d3f953f	0.04677319
75	0x3d80ca3c	0.06288573
76	0x3d452ee2	0.048140414
77	0x3e3f83db	0.18702643
78	0x3e61fee9	0.22069897
79	0x3c9685f3	0.018374419
80	0xbe23e501	-0.16005327
81	0x3a5ee458	0.0008502654
82	0x3d1e4e35	0.038648803
83	0xbd0c7e45	-0.034300108
84	0x3ddcef8c	0.107878774
85	0xbbd15c75	-0.0063891956
86	0xbe067c19	-0.13133277
87	0xbdc2b98a	-0.09508045
88	0x3e094ebe	0.13408944
89	0x3d22d616	0.03975495
90	0xbd6fe21d	-0.058565248
91	0x3cc97a3c	0.024594419
92	0x3b948fed	0.004533759
93	0x3bfe9054	0.00776867
94	0x3dc5d412	0.0965959
95	0xbd8a5498	-0.06754416
96	0x3e3a5641	0.18196966
97	0x3eea165a	0.45720178
98	0xbe177daa	-0.14794031
99	0xbddf69ba	-0.109088376
100	0xbc9b596d	-0.01896354
101	0xbdb07dff	-0.08617782
102	0x3e2e2687	0.17006885
103	0x3c471d3c	0.012152966
104	0xbd942c24	-0.07234982
105	0xbbcc119a	-0.006227684
106	0xbdb11108	-0.086458266
107	0x3ed096b9	0.40739992
108	0x3d88a62a	0.06672318
109	0xbf07f296	-0.5310453
110	0xbe78775f	-0.24264286
111	0xbc2d10e7	-0.010563112
112	0x3dab59e6	0.08366756
113	0x3db0ebb5	0.086387075
114	0xbd93ad04	-0.072107345
115	0x3c8defd0	0.017326266
116	0xbe9d6b10	-0.30745745
117	0xbf067470	-0.5252142
118	0xbde35ea8	-0.111020386
119	0x3d97890c	0.073991865
120	0x3c07bd9c	0.0082849525
121	0x3da0ed4c	0.07857761
122	0x3e44501b	0.19171183
123	0x3e3111a0	0.1729188
124	0x3ddb6684	0.10712913
125	0xbe454f66	-0.1926857
126	0x3e49d577	0.19710337
127	0x3eb9c85d	0.36285678
128	0xbf220f0a	-0.633042
129	0xbe0f99f3	-0.1402357
130	0x3ebada07	0.36494467
131	0x3da62182	0.0811186
132	0x3efee664	0.4978515
133	0xbcd44db0	-0.02591595
134	0xbc844eaf	-0.0161508
135	0xbdc217f3	-0.09477224
136	0x3e23406e	0.15942547
137	0xbda373b8	-0.07981056
138	0x3da886c6	0.08228831
139	0xbe339d0d	-0.17540379
140	0x3dfee6d7	0.12446373
141	0xbdf05858	-0.117356
142	0xbc0c8fc6	-0.0085792
143	0x3df7ce34	0.12099877
144	0x3dab739d	0.08371661
145	0xbe43f5b2	-0.19136694
146	0x3ecf97ae	0.4054541
147	0xbe055def	-0.13024114
148	0x3e173316	0.14765581
149	0xbdff311e	-0.1246054
150	0x3ebf0bc2	0.37313658
151	0x3c3b1bbc	0.011420187
152	0xbec4df01	-0.38451388
153	0x3e442870	0.1915605
154	0x3ea7f061	0.32800582
155	0xbe4f8b44	-0.2026797
156	0xbed866ab	-0.4226583
157	0xbe82acf7	-0.25522587
158	0xbd054035	-0.032531936
159	0xbdfee4f2	-0.124460116
160	0x3e47bbd0	0.19505239
161	0xbc1b7154	-0.009487469
162	0xbda6a2c4	-0.08136514
163	0xbd7c666f	-0.061621126
164	0x3dcf9fe1	0.10137916
165	0x3e6cf06b	0.23138587
166	0xbe1110e2	-0.14166597
167	0x3c682f3d	0.014171419
168	0xbe5fa6c3	-0.21840958
169	0xbe7d4058	-0.24731576
170	0xbded87c4	-0.11598161
171	0xbd175b55	-0.036952335
172	0x3e6b5769	0.22982563
173	0x3e536fea	0.2064816
174	0x3993e13a	0.00028205832
175	0x3d7f3708	0.06230834
176	0x3d28337d	0.041064728
177	0xbd192dc2	-0.037397154
178	0x3ccedaf0	0.025250882
179	0x3e21f65f	0.1581664
180	0x3b877c7a	0.004134712
181	0x3e7eda3d	0.24887939
182	0xbe68a9c7	-0.22721015
183	0xbe596fe1	-0.21234085
184	0xbdc36cab	-0.09542211
185	0xbd6cf92d	-0.05785482
186	0xbe4db6a0	-0.20089197
187	0x3dad5255	0.08462969
188	0x3e3169cd	0.17325516
189	0x3d945b98	0.072440326
190	0xbd67ca06	-0.05658915
191	0xbe84daf8	-0.2594831
192	0x3e4fdd06	0.20299158
193	0x3d45d74e	0.048301034
194	0xbe8b4c09	-0.27206448
195	0x3cf29f3b	0.029616943
196	0x3c6b85b1	0.014375136
197	0x3e2e4512	0.17018536
198	0xbd4c3ed2	-0.049864598
199	0x3c92f4a3	0.017938918
200	0xbe65ddc4	-0.22447878
201	0x3e2bbc11	0.1677096
202	0x3df68d6d	0.120386936
203	0x3e4f7987	0.20261203
204	0xbd24a8e9	-0.040200148
205	0xbe23a292	-0.15979984
206	0xbdef0636	-0.116711065
207	0x3db0c93f	0.08632135
208	0xbdebba51	-0.115101464
209	0x3e9862cf	0.29762885
210	0xbe1ba908	-0.15201199
211	0x3e60cbb6	0.2195271
212	0xbaaeff78	-0.0013351282
213	0x3e0b45e0	0.13600874
214	0x3d11aff7	0.035568204
215	0xbdd1aee9	-0.102384396
216	0x3e075aa1	0.13218166
217	0xbe9101f3	-0.283218
218	0xbe5a55c6	-0.21321782
219	0x3e352bfb	0.17692558
220	0x3dcebf29	0.10095055
221	0x3d192df5	0.037397344
222	0x3e0cf4c8	0.13765252
223	0x3d930fff	0.071807854
224	0xbe8adecf	-0.27123114
225	0x3c39b68f	0.011335029
226	0x3e4b7d17	0.19871937
227	0xbdca70fd	-0.09884832
228	0x3da56b17	0.080770664
229	0x3e4dedd8	0.20110261
230	0xbdbd1cf0	-0.09234035
231	0x3dce7975	0.1008176
232	0x3c9f7c08	0.019468322
233	0xbc8ab1a7	-0.016930414
234	0xbe33d4d6	-0.17561659
235	0x3d8f3f80	0.069945335
236	0x3dcb2b8e	0.09920417
237	0xba8ae230	-0.0010595974
238	0x3b99e091	0.00469596
239	0x3dab72b2	0.08371486
240	0xbd97afed	-0.07406602
241	0x3d8293d7	0.063758545
242	0x3eb99c3a	0.36252004
243	0x3dbf6cad	0.093469
244	0xbc38044b	-0.011231492
245	0x3dbcad75	0.09212772
246	0x3dcc61f1	0.09979618
247	0x3df5a89b	0.119950496
248	0xbe411d12	-0.18858746
249	0x3e9dbd09	0.30808285
250	0x3e67102b	0.22564761
251	0xbb96ff5c	-0.004608078
252	0xbd8b3a83	-0.067982696
253	0xbe97003b	-0.29492363
254	0xbdb3a6ef	-0.087720744
255	0xbd25f3ca	-0.0405157

bias f4 [256]
0	0xbe70a473	-0.23500232
1	0xbe855d15	-0.26047578
2	0x3db5115c	0.08841202
3	0x3e5543cd	0.20826645
4	0xbf00f35b	-0.5037133
5	0x3e00123c	0.12506956
6	0x3e9d0403	0.30667123
7	0xbd99c65a	-0.07508536
8	0x3e6acd59	0.22929896
9	0x3de3a319	0.11115093
10	0x3e930de3	0.28721532
11	0xbe69fe99	-0.22851028
12	0xbe0bd4d8	-0.13655412
13	0x3e5d952e	0.21638939
14	0xbd85a382	-0.06525327
15	0x3dfbfea9	0.12304432
16	0x3d898668	0.06715089
17	0x3ce3aa0a	0.027791042
18	0x3d968417	0.07349413
19	0xbe1b3167	-0.15155564
20	0x3dbb449b	0.09143945
21	0x3e6979bb	0.22800343
22	0x3dd80d21	0.10549379
23	0xbe1b0300	-0.15137863
24	0x3e82dd54	0.25559485
25	0xbdfb2a91	-0.12263978
26	0x3e7365f5	0.23769362
27	0x3e8ef0bb	0.27918038
28	0xbeed3450	-0.46328974
29	0x3dcb49fd	0.099262215
30	0xbe738afd	-0.23783489
31	0x3e837a48	0.2567923
32	0xbeebe50e	-0.46073192
33	0x3d621b4d	0.055201817
34	0x3e88cad2	0.2671724
35	0x3e315b90	0.17320085
36	0x3dfd6746	0.123732135
37	0x3e30aa06	0.17252359
38	0x3e9f3afa	0.31099683
39	0x3f0018e7	0.50038
40	0xbe37c567	-0.17946397
41	0x3dae801a	0.08520527
42	0x3f09e094	0.53858304
43	0xbe3b5d96	-0.18297419
44	0x3c758afc	0.01498675
45	0x3dd1d4c3	0.10245659
46	0x3e90a203	0.28248605
47	0x3d5f32d7	0.054491844
48	0xbe44601c	-0.19177288
49	0x3e185468	0.14875948
50	0x3e69cfad	0.22833128
51	0xbddd14ec	-0.10795006
52	0xbd1fd737	-0.039023604
53	0x3e2ae13b	0.16687481
54	0x3ea78b42	0.32723433
55	0x3e92719a	0.28602296
56	0x3ea4b703	0.32170877
57	0x3e395949	0.18100466
58	0xbe6e5dd2	-0.23277977
59	0xbe28fedb	-0.1650347
60	0xbe0d77cb	-0.13815229
61	0xbea72966	-0.32648772
62	0xbe8cf9a2	-0.27534205
63	0x3dbadf1c	0.09124586
64	0xbe800139	-0.25000933
65	0xbef38b19	-0.4756706
66	0xbd4de508	-0.05026725
67	0x3e92c1ee	0.28663582
68	0xbe26f6a5	-0.16305025
69	0x3e985667	0.2975342
70	0xbd45c135	-0.04827996
71	0x3e72099c	0.23636478
72	0x3f048d27	0.5177788
73	0xbe687937	-0.2270249
74	0xbe91b6b5	-0.28459707
75	0x3dc2a036	0.09503214
76	0x3bc5d14d	0.0060369135
77	0x3e96154e	0.2931313
78	0x3e7c79b3	0.246558
79	0x3e22cc00	0.15898132
80	0x3e634894	0.22195655
81	0x3b8cc200	0.0042955875
82	0xbeb02e5f	-0.34410378
83	0xbe956fbe	-0.29186815
84	0x3e496a9e	0.19669577
85	0xba3b3daa	-0.00071426725
86	0xbcf43880	-0.029812098
87	0xbdfcca41	-0.12343264
88	0x3e74af29	0.23894943
89	0x3e6a25be	0.2286596
90	0x3dfb8a27	0.1228221
91	0x3eae25e3	0.3401328
92	0xbdd7f35a	-0.105444625
93	0xbcbeaf7c	-0.023277037
94	0xbe9fd646	-0.31218165
95	0xbe566d05	-0.20940025
96	0x3bfaa844	0.0076494534
97	0x3eb7baf4	0.3588482
98	0x3e8e791e	0.2782678
99	0xbdb15d45	-0.08660368
100	0x3e856fa4	0.26061738
101	0xbea8885f	-0.32916543
102	0x3df494c0	0.11942434
103	0xbd452962	-0.04813517
104	0x3f23768e	0.63852775
105	0xbd9e1d2d	-0.077204086
106	0x3d897964	0.067126065
107	0xbcc51d19	-0.024061726
108	0xbcfda545	-0.030962596
109	0xbe10e73b	-0.14150707
110	0x3e3d3573	0.1847742
111	0x3e10af6e	0.14129421
112	0x3e5c32f6	0.21503815
113	0xbc507b72	-0.012724744
114	0xbd10902c	-0.035293743
115	0xbebfc0aa	-0.3745168
116	0x3d31dbca	0.043422498
117	0x3e344ff8	0.1760863
118	0xbe840174	-0.2578236
119	0x3d79f425	0.06102385
120	0xbed524d3	-0.41629657
121	0x3ef888f7	0.48541996
122	0x3e709f65	0.23498304
123	0x3ee900e8	0.45508504
124	0x3db5d504	0.0887852
125	0xbd9bb0ff	-0.07602119
126	0x3efd399d	0.49458018
127	0x3da3cf5a	0.079985335
128	0xbdb7cfd2	-0.089751855
129	0x3a918c01	0.0011104346
130	0x3ea5fa02	0.32417303
131	0xbe2c2366	-0.16810378
132	0x3e9800a9	0.29688004
133	0xbe4895c2	-0.19588378
134	0x3e4da776	0.20083413
135	0x3d832287	0.0640307
136	0x3dc40bcd	0.09572563
137	0x3e146445	0.14491375
138	0x3e0bce18	0.13652837
139	0xbe6a09e7	-0.2285534
140	0xbd32c3c5	-0.04364373
141	0xbe8071f7	-0.25086948
142	0x3dbbabaf	0.091636054
143	0x3e08aa99	0.13346328
144	0x3ed4d58a	0.41569167
145	0x3da009a0	0.07814336
146	0xbd688f43	-0.05677725
147	0x3dfa6001	0.122253425
148	0xbe319c7c	-0.1734485
149	0x3e3b19cf	0.18271564
150	0x3e16bbbc	0.14720052
151	0xbdcc39e1	-0.09971977
152	0x3ea435ac	0.32072198
153	0x3dddecd2	0.108361855
154	0xbe9337f1	-0.28753617
155	0x3e56e1e8	0.20984614
156	0xbe58db3d	-0.21177383
157	0x3e7f2214	0.24915344
158	0x3e9fdc06	0.31222552
159	0x3e90fec8	0.28319383
160	0x3d0ecf05	0.034865398
161	0xbb9aba6e	-0.004721931
162	0xbe708642	-0.23488715
163	0x3e4a4367	0.19752274
164	0xbe8643a1	-0.26223472
165	0xbed1ccd8	-0.40976596
166	0xbec67a9b	-0.38765416
167	0x3c5b85ff	0.013398646
168	0xbe4fbcd9	-0.20286883
169	0xbcb3267c	-0.021868937
170	0x3e0f747f	0.14009283
171	0x3ca02379	0.019548165
172	0x3e5f73da	0.21821538
173	0x3d8d1479	0.068886705
174	0x3e423884	0.18966872
175	0x3ef3c190	0.47608614
176	0x3db47e65	0.0881317
177	0x3d8e2079	0.069397874
178	0xbe52dbcd	-0.2059166
179	0xbe0bac9a	-0.13640061
180	0x3e80ba3f	0.25142094
181	0x3d6ded7b	0.058087807
182	0xbe6746c5	-0.2258559
183	0x3e04c171	0.12964417
184	0x3de7badb	0.11314937
185	0xbd467fd1	-0.04846174
186	0x3e7c7889	0.24655356
187	0xbe649fe8	-0.22326624
188	0x3e2ada16	0.16684756
189	0xbe39d91e	-0.1814923
190	0x3e5f978b	0.21835153
191	0xbe003f5f	-0.12524174
192	0xbe4e547d	-0.20149417
193	0xbe07e29d	-0.1327004
194	0xbdafee25	-0.08590344
195	0xbead998f	-0.33906218
196	0x3e3c9156	0.18414816
197	0xbd7282c6	-0.059206747
198	0xbdf0b918	-0.11754054
199	0xbe6ee9c0	-0.23331356
200	0xbd160ba7	-0.036632206
201	0xbdb9d0ea	-0.0907305
202	0xbe5a1f5e	-0.21301028
203	0xbd1d24b6	-0.03836509
204	0x3e34e4ce	0.17665407
205	0x3dadeae7	0.0849207
206	0xbe9d661b	-0.30741963
207	0xbeb49d6d	-0.35276356
208	0xbdae85f9	-0.08521647
209	0x3e58ed57	0.21184288
210	0xbe4c3044	-0.19940287
211	0xbd8ae288	-0.06781489
212	0x3ea558a7	0.322942
213	0xbc63179d	-0.01386061
214	0x3e7dac04	0.2477265
215	0x3e2efd7b	0.17088883
216	0xbe7217ee	-0.23641941
217	0x3e2ede3c	0.17076963
218	0xba9a9531	-0.001179373
219	0xbe19200d	-0.14953633
220	0x3d3a7ab1	0.045527164
221	0x3cd54d5e	0.026037868
222	0xbe208249	-0.156747
223	0x3cc7eb4b	0.024404189
224	0x3e4fd367	0.20295487
225	0xbe5472a1	-0.20746852
226	0x3e9d1054	0.3067652
227	0x3e35c0a5	0.1774927
228	0x3db485fb	0.08814617
229	0x3e75037e	0.23927113
230	0x3eb55857	0.3541896
231	0xbe7abe33	-0.24486618
232	0xbded7dc9	-0.11596257
233	0x3ddafd51	0.106928475
234	0xbe04e461	-0.12977745
235	0xbea9a2f4	-0.33132136
236	0x3dd942c8	0.10608441
237	0xbdbeeca5	-0.0932248
238	0x3dcd68ea	0.100297764
239	0x3e8a7bba	0.2704752
240	0x3e7501f2	0.23926523
241	0xbe7a3087	-0.24432574
242	0x3efdc449	0.49563816
243	0x3d925726	0.071455285
244	0x3d92cf29	0.07168419
245	0xbe8d7f45	-0.2763616
246	0x3da992b2	0.08279933
247	0xbd1cf780	-0.038321972
248	0x3c2d3899	0.010572576
249	0x3d843013	0.06454482
250	0xbe1c34aa	-0.15254465
251	0xbe8b494c	-0.2720436
252	0xbdff9a02	-0.124805465
253	0xbe51590d	-0.20444126
254	0xbf0856a9	-0.5325723
255	0x3e6c768e	0.230921
